outputs/pytorch_models/dpna_model.pth (torch, 45749 bytes, 13 tensors)

fc1.weight f4 [64, 46]
00000000: 9c71 e6bd 5caf 98bd cb9a af3d 9b86 c9bc
00000010: 11c1 67bd 6512 28bb dd93 4fbe 90c9 863d
00000020: 077b 8a3d 0f14 43bd 9ce7 02bd 1f6a 89be
00000030: ca67 c23b d0fc a3bd b502 5fbe 1a7c 71bd
00000040: 7062 d93d 2516 91bd 4d19 ba3d e706 b43d
00000050: d8c9 433e 0130 c7bd 8df7 84bd 1241 d13d
00000060: 2216 fe3d 2e56 7cbd dead b83d fdb1 3fbe
00000070: 0466 3ebe 5e95 09be ce55 c7bd 79ad 1d3d
00000080: 0c6e 71bd 1bfc b63c fd35 403e 152f cf3c
00000090: 0e99 1dbe 6534 903d bfc6 5b3d d315 893c
000000a0: 2abf b4bc 55f2 f2bd 751b c13c 9132 d6bd
000000b0: 7a21 81bb 13a6 24bc 8452 a0bd d9ba 713c
000000c0: 625b b8b9 b46b 403e d881 fc3d de19 20bc
000000d0: a689 0e3e 1d3c f7bc d221 03bd f8e7 e93b
000000e0: d8fc 83bd 8d24 e8bd d94c 5fbd f0eb 7fbe
000000f0: 72b7 1dbe f4bf 90bd 89b0 21bd fd86 463e
00000100: 5c33 77bd 3553 bcbd 7fef e0bb c33e b33d
00000110: 552f 74bd c3c1 cc3c d2c6 42bd 55c2 4b3d
00000120: bbbe 393e 1abc 2bbd 4401 63be f524 61bd
00000130: a80c 333c a617 c93d ec22 4a3d 4159 3c3d
00000140: 3548 833d 2d26 8cbd 6b3a 78be 880a fe3d
00000150: f5aa debc cd71 843d 0cc8 c73d e71e 7e3b
00000160: 06f8 afbd 3f6e 85bd c76e 963d 8117 1bbd
00000170: 2911 883d 59d5 e43c d1c3 423b a926 93bc
00000180: 1cc8 cbbd fa13 7abe 2712 483e 4ebf 5e3d
00000190: f8fb 48bd 1d8c b53d f257 c4bd 05ed 183e
000001a0: ddae 033e fe6f fa3d 0482 213d 8987 3abe
000001b0: b64e 9fbc 1023 bfbc 1893 023e 80d0 bdbd
000001c0: e192 c53d 01a2 49bd 199b 01bb 4614 9e3d
000001d0: e8b6 d33c f903 093e 6c59 393d 2418 a83d
000001e0: b149 07be ee25 233d fba1 043e 3f72 45be
000001f0: 720b 213e 3b7e a03d 35d4 cabd 967a 123e
00000200: f547 033e d98a bebc 36a6 9e3d 39da afbd
00000210: 2d80 0a3d 8016 94b9 3a37 acbd 8ffd 87bd
00000220: f108 66ba 875f 913d b5db 1a3d fd00 153e
00000230: 694f 883d efa9 a7bd ef62 b1bd c4f9 1a3c
00000240: 760f 6fbd 391e a73d 4ca0 a3bd 01e5 c23b
00000250: cbfa 973b 450f f1bd 479e b4bd d851 12be
00000260: 6458 39bd 31d3 1fbd 0d7c 033c f5df 99bd
00000270: b4af a03c 3588 89bd fae0 ad38 0958 5ebd
00000280: 59e6 453e f083 cbbd b7a7 01be e87e a7bd
00000290: ec43 c8bc 807a 24be a703 e73d 3efa 8b3d
000002a0: e157 d23d 341f e93d dc9c 8d3d ffbe 22bd
000002b0: d6ae 703d 0a2e 153e c237 973e 9304 293e
000002c0: 6f29 e5bc bdd6 2c3e 194e f9bd 54a9 2d3e
000002d0: cd3e 0dbe a535 b03c 5a61 8dbd 123d 98bc
000002e0: b3ce 9f3d 0fd4 abbd ded5 acbd 132a e8bc
000002f0: 968c 273c 6d6b 043e 9ee3 633d 84bb 00bd
00000300: 1aed 01be f1fd ce3d 05df 903d 0d6f 4f3b
00000310: 3247 24be 7491 11be f825 20be 6a7f 26be
00000320: 7e8f 69bd 25ad 2b3d 9180 30bd 8dd3 d13c
00000330: 61fc ea3d 1165 45be de8d e83d 9a98 bb3c
00000340: 64d1 89be 7cf4 39be 1394 36be eb97 bb3d
00000350: 7a33 8e3e 5f53 50bd 94d6 dc3d f86b 453d
00000360: 542e c9bd f687 213e a119 9a3d ea56 d5b9
00000370: 0ecb e13d f1b7 fa3d 51a6 3c3d 0e92 963d
00000380: bb20 5ebd 1bb9 a0bd d8c9 50bd cca3 bbbd
00000390: 89be 0cbe 2c26 95bc a7cc 6ebd 9455 5dbe
000003a0: 0f02 22be 3951 0bbd c281 97bb 6b1b b0bc
000003b0: 4b51 f3bc 8eaa ed3d bbb6 bfbc 68ea a1bd
000003c0: 505a 24be 2e48 debd d04f 4cbd 07f8 2f3d
000003d0: c162 d13b fad0 84bd 3eb3 49be 4d70 33be
000003e0: 6a57 aabb e261 0abd 04bf bebd b6c6 a7bd
000003f0: 996c 5abd d7ac e03d 2473 2cbe 8ad6 bdbd
-0.11252138 -0.07455322 0.08574446 -0.024600318 -0.056580607 -0.002564573 -0.20271249 0.06581414
0.06761747 -0.04762655 -0.03195916 -0.26838776 0.005932783 -0.080072045 -0.21778376 -0.058956243
0.106144786 -0.07084302 0.09086857 0.08790379 0.19119966 -0.09725953 -0.06492529 0.10217489
0.12406565 -0.061605625 0.090175375 -0.18720241 -0.18593603 -0.13435885 -0.09733163 0.038495515
-0.05894284 0.02233701 0.18770595 0.025291005 -0.15390417 0.070412435 0.053656336 0.01673404
-0.02206381 -0.118626274 0.023572663 -0.104588635 -0.0039407583 -0.010049361 -0.078282386 0.014754021
-0.000351633 0.18791085 0.12329453 -0.009771792 0.13919696 -0.030180031 -0.032014675 0.0071382485
-0.064447105 -0.113350965 -0.054516647 -0.24992347 -0.1540201 -0.07067862 -0.039474998 0.19387431
-0.060351714 -0.09195558 -0.0068644877 0.08752205 -0.05961545 0.024994737 -0.04755289 0.049745876
0.18139164 -0.041927435 -0.22168452 -0.054966886 0.01092831 0.09818964 0.04934971 0.045983557
0.06410257 -0.06843219 -0.24241035 0.124043524 -0.027181128 0.06467018 0.09754953 0.0038775743
-0.085922286 -0.065151684 0.07345348 -0.037864212 0.06643898 0.027933763 0.0029718766 -0.01796277
-0.09950277 -0.24421683 0.19538175 0.05438166 -0.04906842 0.08864615 -0.09587087 0.14934166
0.12859674 0.12228392 0.039430633 -0.18215765 -0.019446712 -0.023332149 0.12751424 -0.09268284
0.096471556 -0.049226765 -0.0019776283 0.077187106 0.025844052 0.13380422 0.045251295 0.082077295
-0.13211705 0.039831094 0.12952416 -0.19281863 0.15727022 0.078365766 -0.099037565 0.14304575
0.12820418 -0.023259567 0.07746546 -0.085865445 0.033813644 -0.00028245524 -0.08408971 -0.06640159
-0.0008775136 0.070982985 0.037807185 0.14551158 0.06655771 -0.08186709 -0.08661448 0.009458963
-0.058364354 0.081600614 -0.079895586 0.0059477095 0.004638051 -0.117704906 -0.088192515 -0.14289033
-0.04525031 -0.039019767 0.0080251815 -0.075134195 0.019615032 -0.067154326 8.291188e-05 -0.054283176
0.19326152 -0.099372745 -0.12661634 -0.08178502 -0.02444645 -0.16062355 0.112799935 0.06834839
0.10270668 0.11382905 0.06914684 -0.03973293 0.058760487 0.14568344 0.29534727 0.16505651
-0.027973859 0.16878791 -0.12173099 0.16959125 -0.13793488 0.021509955 -0.06903334 -0.018583808
0.078030966 -0.08390056 -0.084392294 -0.028340375 0.010226389 0.12931605 0.055636995 -0.03142883
-0.12688103 0.10107029 0.070737876 0.0031651885 -0.16042784 -0.14215642 -0.15639484 -0.16259542
-0.05702161 0.04191317 -0.04309136 0.02561357 0.11473919 -0.19276835 0.11355184 0.022899915
-0.26917565 -0.1815967 -0.17829923 0.091598354 0.27773649 -0.05086076 0.10783115 0.04819867
-0.098232895 0.15774521 0.075244196 -0.00040691282 0.11025058 0.12242115 0.04605705 0.073520765
-0.054230433 -0.07847806 -0.050973743 -0.09162101 -0.13744558 -0.018206678 -0.05830064 -0.21614677
-0.15821098 -0.034013007 -0.0046236226 -0.021497449 -0.02970185 0.11604796 -0.023402562 -0.079060376
-0.16050076 -0.10853611 -0.049880803 0.042961147 0.006389946 -0.064851716 -0.19697282 -0.17523308
-0.005198409 -0.033784755 -0.09313777 -0.08192198 -0.053326223 0.109704666 -0.16840798 -0.09269436

fc1.bias f4 [64]
00000000: c45a 08bd 18b3 0e3e 29a7 c13d 153c f43d
00000010: 1e1e 9e3d 01a4 153e 5aa4 66bd 808e 1ebd
00000020: 0b44 063d 9f07 c5bd 46c3 123d 61f1 613d
00000030: 4741 163e a04b f7bd c593 e03d a10d 19bd
00000040: ec05 a23d 7fb2 2ebd 8e39 1d3d b95d b33c
00000050: 4e10 7d3c 7500 cbbd dcbc f93c eb92 663c
00000060: 737c c73a 5167 07bd a720 9fbb 3666 2bbd
00000070: 90b1 d53b 7114 9d3d 1ae7 09be 6887 a03d
00000080: 6769 a93d b7b9 173e 4c37 56bd ca5a dbbd
00000090: 4357 35bd 93c7 0dbe be5a 01be f002 b93c
000000a0: d5e9 cfbd 74d6 debb b828 eebd b8c5 973d
000000b0: 0a41 eabd 5725 21bd d472 85bd 1c5e c53d
000000c0: 6066 183c 3bfb 203d fe33 09be 5d92 afbd
000000d0: cbde 7d3d 930b 403d 0c3a 91bd baf8 f63c
000000e0: b1e0 a13d 4544 07be 4c7a 21bd 18df c63d
000000f0: ebb1 93bc 182a 09bd 614e 0dbe 8562 e23d
-0.033289686 0.13935506 0.094557114 0.11925522 0.07720588 0.14613344 -0.05630908 -0.038710117
0.032779735 -0.09620594 0.03583076 0.055161837 0.14673339 -0.12074971 0.10965685 -0.037366513
0.07911286 -0.042650696 0.038384967 0.021895276 0.015445782 -0.099121965 0.030485563 0.014073114
0.0015219584 -0.033057515 -0.0048561874 -0.041845523 0.0065214112 0.076699145 -0.13467064 0.07838327
0.08272057 0.14816938 -0.05229883 -0.10710676 -0.044272672 -0.13845663 -0.12632272 0.022584409
-0.10152022 -0.006800467 -0.1162886 0.07410759 -0.114381865 -0.03934225 -0.06516042 0.096370906
0.009301752 0.039302092 -0.1339874 -0.085728385 0.06198005 0.046886038 -0.0709115 0.030147899
0.079041846 -0.13209637 -0.039423272 0.097105205 -0.018029174 -0.03348741 -0.1379943 0.11053947

bn1.weight f4 [64]
00000000: fc3f ac3f f83a a73f 9a77 863f 025c ae3f
00000010: 37b5 a43f 3ccf aa3f c5f7 a23f 6f47 ab3f
00000020: 1577 9a3f 2c05 983f d478 973f 34ee a23f
00000030: 3a5e 9e3f 8521 ad3f c9e5 a83f a6de 9a3f
00000040: 867a 9f3f d8bb ac3f 8b80 a53f f10f 883f
00000050: 9687 943f 8b39 a13f 5f21 b03f 1e98 a03f
00000060: e146 a43f a2d4 913f a8f5 a83f 4b90 a63f
00000070: b752 943f 4803 b43f 7b13 9d3f 18d8 a73f
00000080: 8c30 a73f 1c87 a63f 5707 a13f f6ae 8e3f
00000090: bc10 a53f ca18 9d3f ee47 a33f c937 a83f
000000a0: e1fb a13f fd90 9c3f 8910 a43f 8ea7 ac3f
000000b0: 1f95 963f f5b4 ac3f db7c a63f a743 b03f
000000c0: 1a53 a33f 4690 983f c172 9c3f 26df a53f
000000d0: f1a0 993f 415b a43f e93f a13f 987b a63f
000000e0: b96b 9a3f 11f3 a33f 7dc0 993f e0b6 9f3f
000000f0: 42df ab3f 1c8b a33f bc48 a13f 486a a83f
1.3457026 1.3064871 1.050525 1.3621829 1.2867802 1.3344493 1.2731863 1.3381175
1.2067591 1.1876578 1.1833749 1.2728944 1.2372506 1.3525854 1.3195125 1.2099197
1.2459266 1.3494825 1.2929853 1.0629865 1.1603878 1.2595686 1.3760184 1.2546422
1.283413 1.1393015 1.3199968 1.3012785 1.1587743 1.4063501 1.227157 1.3112822
1.306169 1.3009982 1.2580365 1.1147144 1.2895732 1.227319 1.2756326 1.3142024
1.2654992 1.2231747 1.2817546 1.3488634 1.1764258 1.3492724 1.3006853 1.3770646
1.2759736 1.1919029 1.222252 1.2958724 1.200224 1.2840348 1.2597629 1.3006468
1.2064124 1.2808553 1.2011868 1.2477684 1.3427508 1.2776828 1.2600322 1.3157434

bn1.bias f4 [64]
00000000: fddd 903d 4ed0 233e 3f4f 86bc 44e6 393e
00000010: a9de 423e a71c 443e d33c 553e a58f a93d
00000020: c5ba 5b3e 294a 163e 684a f93d f371 1e3e
00000030: 825b 3b3d e670 6b3e 3061 e93d 4c01 a63d
00000040: 61ef d03d 3d99 1f3e 2907 123e 35f9 9dbd
00000050: 4abe 863d 2610 1d3e 178a 3c3e 2f7b 3e3e
00000060: 91fc 033e 558b 933d 5e5f 853d 547e ca3d
00000070: 033a 1e3e 39af 1b3e 9a1d 0c3e f2fb 173e
00000080: 8720 553e 3c70 493e c700 153e 7bee 84bc
00000090: 3cc2 fb3d 94a9 2f3e 897e 1b3e 3841 4b3e
000000a0: 06fd bd3c b1ab a63d 5441 853d 182a 273e
000000b0: 047b 633d ea32 dd3d 66fe d13d 8a36 913d
000000c0: de55 b93d 9160 90bd d782 733c baab ac3d
000000d0: f07a a93d 0897 423e c85c 7d3c 8e45 693e
000000e0: 4f1a 033e d6f8 da3d 3390 ae3d 495c 0e3e
000000f0: 9b17 273e 8fab 123e 5bfc 0c3e 8675 e33d
0.07073591 0.1599743 -0.01639521 0.18154246 0.1903025 0.19151555 0.20823984 0.08279351
0.21457966 0.14676727 0.12172395 0.15473156 0.045741566 0.22992286 0.1139549 0.08105716
0.10201908 0.155858 0.14260544 -0.07713548 0.065792635 0.15338191 0.18412052 0.18601678
0.12889315 0.0720431 0.065123305 0.098873764 0.15451817 0.15203561 0.13683167 0.14842203
0.2081319 0.1967172 0.14551078 -0.016226998 0.12292907 0.17154533 0.15184988 0.19849098
0.02319194 0.08138216 0.06506601 0.16324651 0.05553724 0.10800727 0.10253601 0.070904806
0.09049581 -0.070496686 0.014862738 0.08431192 0.082754016 0.19002926 0.015464015 0.2278044
0.12803005 0.10691993 0.085235976 0.13902391 0.16317599 0.14323257 0.13768141 0.111064

bn1.running_mean f4 [64]
00000000: 6bb1 76bd d32b 113e 5b62 843d 4f9d 033e
00000010: d5a8 953d 50e2 173e 5e1e b2bd f948 47bd
00000020: 3fe6 273d 521c cabd 71b2 2f3d 19af 433d
00000030: 5fe9 fc3d 5771 c9bd 65a0 533d 36ab 80bd
00000040: 0163 8e3d 0041 e3bd 20ab 003b 06fc 533d
00000050: 74b0 51bb 96ff c2bd 108f 043d 82c2 693d
00000060: a729 1bbd 6013 343d 2849 52bc 328a 1bbc
00000070: 4683 c93c 572b 833d 0639 f5bd 1c59 6a3d
00000080: b8cc 433d 7cfd b83d fa7d 34bc 8ba8 d4bd
00000090: e852 f7bc 8267 0abe 7703 10be 725e a23c
000000a0: d76c 2abd 0457 9fbd e651 cfbd 1f6d b43d
000000b0: b7f0 7abd cdfc 23bd 89ab cdbd fafc 9b3d
000000c0: 0b81 e2bc fcff 683d b3ac 58bd fb90 adbd
000000d0: 78f6 b63c 4fb0 443d 39b1 81bd a344 2b3c
000000e0: dbc9 4b3c 593b 2abe ca43 dbbd ce37 cf3d
000000f0: 1a89 47bd 60b6 7dbd fbb0 c5bd 6665 c23d
-0.060227793 0.14176874 0.06464072 0.12852977 0.07307593 0.14832425 -0.08697198 -0.048653577
0.040991064 -0.09868683 0.042894784 0.047774408 0.123491995 -0.09836071 0.051666636 -0.06282656
0.06952477 -0.11096382 0.0019633248 0.05175402 -0.0031996043 -0.095214054 0.032362998 0.057070263
-0.03788152 0.04396379 -0.012834825 -0.009493398 0.024598729 0.06404751 -0.11973767 0.057213888
0.047802657 0.09032723 -0.011016363 -0.103837095 -0.0301909 -0.13516048 -0.14063822 0.019820426
-0.041607704 -0.07780269 -0.10123043 0.08809876 -0.06126472 -0.04003601 -0.10042483 0.07616611
-0.027649423 0.05688475 -0.052899074 -0.084749185 0.022334322 0.048019703 -0.06332631 0.010453376
0.012438263 -0.16624202 -0.10706289 0.10118066 -0.048714735 -0.061941504 -0.09652897 0.094919965

bn1.running_var f4 [64]
00000000: 0587 ae3e 2695 053f 121e 0b3f a234 043f
00000010: c8fd ec3e 8192 0b3f f838 693f 2fa9 0c3f
00000020: d284 503f ed02 423f 0861 243f cd27 1f3f
00000030: d9f3 cd3e e159 e23e 7420 4d3f 4d0d 1b3f
00000040: 42d0 4f3f e9c0 e73e 2aa9 8e3e 62eb e53e
00000050: 07b6 bc3e e95a 093f 6559 f83e c461 d73e
00000060: 3760 253f e6e4 c53e fc7c bf3e f65d 3e3f
00000070: 2316 343f af6f 343e ab61 e23e 5f3e 093f
00000080: aa7e d23e 2272 8b3f f242 cd3e 824d e63e
00000090: c8a8 903e 7c4b 243f 4544 043f 2347 313f
000000a0: 639b 043f 41ee 5f3f 8ee2 f43e 47b9 323f
000000b0: 2975 fd3e 1d62 073f 2391 e63e 16d3 3f3e
000000c0: 6d42 233f 67bd 703f 9e02 f63e 99b7 443f
000000d0: d2b3 5d3f 7708 5e3f feae 6e3e 5cb6 2d3f
000000e0: 5d9c 493f 89cc 1a3f d60c 4e3f 4cda a13e
000000f0: 8b95 f43e 285c cc3e 1f50 a33e 070c af3e
0.34087387 0.5218071 0.5434276 0.5164281 0.4628737 0.5452042 0.9110255 0.54945654
0.8145267 0.75785714 0.6421056 0.62170106 0.40225103 0.44209197 0.80127645 0.6056717
0.8117715 0.45264366 0.27863437 0.44906145 0.36857626 0.5365434 0.48505703 0.42066777
0.6459994 0.38651198 0.37400043 0.74362123 0.7034628 0.17620729 0.4421514 0.53610796
0.41112262 1.0894206 0.40090138 0.4498101 0.2825377 0.6417768 0.5166667 0.6924917
0.517996 0.8747292 0.47829098 0.6981396 0.4950345 0.52884084 0.45032606 0.18732867
0.6377323 0.94039005 0.48048872 0.7684265 0.8660251 0.86731666 0.23308942 0.67856383
0.78754216 0.60468346 0.80488336 0.3161186 0.47770342 0.3991406 0.31897065 0.34188864

attention.W.weight f4 [64, 64]
00000000: 52bc 643c d1ab 0a3e bbbc a2bd 36c0 8abd
00000010: 5cf1 eebd b298 b33d 564b 28be d5e2 50be
00000020: 21fb f0bd 6ab4 803a a1b1 233e 5e84 b43d
00000030: 3e5f 1fbe 0bbb d5bd 325c 4ebe ad2a e3bb
00000040: 22ce b1bd e7c5 8a3c 8be4 e3bd 21c4 e73d
00000050: eb9e cbbd 0b47 803e b8ed ed3c a6c8 163c
00000060: f76f 3cbe 40ca 633d da5b 61bd 476d c2bc
00000070: dd8a 723e cc66 763e 4586 8d3d bd93 f8bd
00000080: 076f 03be 4037 01be 11a0 0a3d 5fae 853c
00000090: a563 7f3e b777 89bd 6a7f 10be 4390 0abe
000000a0: 0794 003e 0e93 a9bd a66a 03bc 9545 f03d
000000b0: 6dfe 613e 176c cdbd 9ec2 37be f739 07be
000000c0: 87d4 2ebd 3eb1 223e dace 773d 7e4b 1fbe
000000d0: 25e0 0cbe d8c5 cc3d c488 6b3e 6c29 c7bd
000000e0: 801c cfbd d72b 0c3d 68d8 b23c 5df1 b23d
000000f0: a79b c73d 8a29 573d 306b bebd e372 30be
00000100: 1005 f7bc ae49 523e 6579 d8bd 6e87 81be
00000110: 8852 1fbe c25d b3bd 77bd acbe a2b4 16be
00000120: 1da7 3bbe 6af3 b0bd 0f00 06bd 7298 e63c
00000130: a2fb 7fbd 173e c13d d300 18bd c9a0 b2bd
00000140: f059 91be d42c 8a3d ef40 88bc ac2f 22be
00000150: 21a6 f43d 860b d23c 36a1 d53d 207f fcbd
00000160: 2de3 303c 01ed 183d 6fd6 f0bd 1c3a cdbd
00000170: dba5 83bd 4e7f 0fbe d26c c0bd b7f4 f1bd
00000180: 4e60 49bd 47cf 9fbe f35e 10be 0c0c 6dbd
00000190: 1257 3c3d 8ef8 01be 25c7 80be 0836 1bbd
000001a0: 9d2a 4e3d 0409 28be 74ea 66bd aa31 c8bc
000001b0: 14bf eb3b f4b5 64be 0fab 7e3d 23df 8bbe
000001c0: 8535 15be 0907 15be ed2f 183d 3143 66be
000001d0: decc 32bd fb20 80bd 37a7 cebd 1b91 e6bd
000001e0: 7437 f83b c00d 873d 3924 023e 6bad b23d
000001f0: 72ea 863b a948 c53d ecde ddbc 410f 34be
00000200: c0ec e93d ee7a 683d 7a3d 87be 8372 57be
00000210: 8833 24bd db54 843d a647 f13b 47f2 b0bd
00000220: 0982 92bd 00db 02be 7a56 91be f80e 01be
00000230: 12db 213e 0d0d 5cbe 8776 49be 3a61 14be
00000240: f8d6 aebd 7148 853b 805e 81bd ef30 68be
00000250: c150 8dbc e234 b9bd 93c6 9fbd 9496 36bc
00000260: 0a83 10be 7c7e 1fbe a110 a4bd 1aec e7bd
00000270: 8327 0fbb 3e69 91bd a29b 3dbd 68f1 2bbc
00000280: 969a 2bbd 9f99 12be 813f 32be 623e 1dbe
00000290: 8104 9abd cf4a 49be f44e d0bd 4d94 883d
000002a0: f3ca a6bd fb64 a3bc 78ad 63be 5405 34be
000002b0: 5c8f 1abe 6835 16bd 5db5 a6bd ff9b 22be
000002c0: 3096 00bd acec 3f3e e93c 16be 168e ea3d
000002d0: ed0e a0bb a13d b5be 818e 56be 8453 14be
000002e0: f7d0 98be d332 293e 8342 b9be 9c47 0cbe
000002f0: 091f c5bd 7a1f 6bbe 6bd4 0fbe 6e8d dfbd
00000300: b699 febd ba7c 44bd a9fc 183d a6ca a13e
00000310: fb9e 213d 06e8 1f3e ab8b 14bc 33e7 4d3e
00000320: 5fc9 343e c9c7 823d cef1 01be bdbb 04be
00000330: 8129 9d3d 7a88 bb3d 48f0 cb3d 33e2 013e
00000340: 00df 05bd 5cc5 473c abdd 28be 4ca5 5dbd
00000350: 335f 193e 0435 c8bd f943 d9bd 66e5 69bd
00000360: 5322 043d 947f 973a 89aa a9bd cdd0 393e
00000370: f69e fdbd 8070 53be 99f1 4e3d 0ce6 a63d
00000380: 5ebb f7bb d7de 783e 75b0 d2bd 6c6e 3f3e
00000390: f05a ed3c d91b 073c 88cf 993d 3db3 323e
000003a0: b45a 983d ff59 3c3d 42bc 773d 316b 043e
000003b0: 7ce4 17bd 5877 03be 10b8 543e e88f 21bd
000003c0: 9f27 763e f470 9e3d 6cfe 37be 5f70 0c3e
000003d0: c4f2 473e afb5 503c 365e 71be 2236 f23d
000003e0: 46b3 203e db9c 41be 2844 86bd f59a 08bd
000003f0: abbd afbd f6c1 c3bd 5a3b 26be 1794 2a3e
0.013960915 0.13542105 -0.07946154 -0.067749426 -0.116671294 0.08769359 -0.16434988 -0.2039903
-0.11766649 0.0009819393 0.15985729 0.088143095 -0.15563676 -0.10436066 -0.20152357 -0.0069325776
-0.08681895 0.01694007 -0.111275755 0.113167055 -0.099424206 0.250542 0.029044017 0.009203112
-0.18402086 0.055612803 -0.055019237 -0.023733748 0.23685785 0.24062651 0.069103755 -0.12137554
-0.12835322 -0.12618732 0.033844057 0.016318498 0.24940355 -0.06712287 -0.14111105 -0.13531594
0.12556468 -0.082800016 -0.008021032 0.11732022 0.22069712 -0.10030382 -0.17945334 -0.13205706
-0.04268315 0.15887925 0.060500003 -0.15556142 -0.1375738 0.09998673 0.2300139 -0.097246975
-0.10112858 0.034221496 0.021831706 0.08737443 0.09746485 0.05252985 -0.09297788 -0.17231326
-0.030153781 0.20535919 -0.10570029 -0.25298637 -0.15558827 -0.08758117 -0.337383 -0.14717343
-0.18325467 -0.086401775 -0.0327149 0.028148863 -0.062495835 0.09435671 -0.03711016 -0.087220736
-0.2838893 0.067468315 -0.016632525 -0.15838498 0.11945749 0.02564026 0.10431139 -0.12328935
0.01079635 0.0373354 -0.1175965 -0.10020849 -0.06428119 -0.14013407 -0.09395756 -0.11814254
-0.04916411 -0.31212828 -0.1409872 -0.057872817 0.045981474 -0.12692472 -0.25151935 -0.037893325
0.050333608 -0.16409689 -0.056375936 -0.024437744 0.007194409 -0.22335035 0.062174853 -0.27318677
-0.14571197 -0.14553465 0.03715508 -0.22486569 -0.043652408 -0.062562905 -0.100904875 -0.112581454
0.00757497 0.065944195 0.1270913 0.08724483 0.0041173035 0.096329994 -0.027083836 -0.17583944
0.114221096 0.05675786 -0.2641409 -0.21039777 -0.040088207 0.064614974 0.0073632775 -0.08639961
-0.071537085 -0.12778854 -0.2838629 -0.12603366 0.15806225 -0.21489353 -0.19674121 -0.14490214
-0.08537096 0.0040674736 -0.063168526 -0.22674917 -0.01725042 -0.0904329 -0.07801547 -0.011144299
-0.14112487 -0.15575594 -0.08010984 -0.1132433 -0.002184362 -0.071001515 -0.046291 -0.010494567
-0.04189547 -0.14316414 -0.17407037 -0.15355828 -0.0752039 -0.19657443 -0.10171309 0.06668911
-0.08144178 -0.019945612 -0.22234142 -0.17580158 -0.1509375 -0.036672026 -0.08140061 -0.1587982
-0.03139323 0.18742627 -0.14671673 0.11452882 -0.004884592 -0.35398582 -0.20952798 -0.14484984
-0.29846928 0.16523294 -0.36183557 -0.13699192 -0.0962506 -0.22961226 -0.14045875 -0.109156474
-0.12431662 -0.04797051 0.03735033 0.3159992 0.039458256 0.15615854 -0.009066503 0.20107727
0.17654942 0.06385762 -0.12689897 -0.12962241 0.07673932 0.0915689 0.099579394 0.12683944
-0.032683372 0.01219305 -0.1649081 -0.054112718 0.14977722 -0.09775737 -0.10608668 -0.057103537
0.032259297 0.0011558407 -0.0828448 0.18146057 -0.12383835 -0.20648384 0.050523374 0.08149347
-0.0075601777 0.24303757 -0.10287563 0.18694466 0.028974026 0.0082463855 0.075102866 0.17451186
0.07439175 0.045984264 0.06048227 0.12931515 -0.037083134 -0.12838495 0.2077334 -0.03944388
0.24038552 0.07736388 -0.17968148 0.13714741 0.19526201 0.012738629 -0.23571095 0.11826731
0.15693387 -0.18907492 -0.065559685 -0.033350904 -0.08581098 -0.095584795 -0.16233578 0.16658054

attention.W.bias f4 [64]
00000000: 128c 933c ef80 cdbd cfa2 b1bd ebc8 203e
00000010: 14af 4bbd 9d84 37be 8aba 3c3a 2e03 8cba
00000020: 9248 04be 2235 61bd 1f92 c1bc 68b8 bcbd
00000030: b661 fcbb f2ba ee3c a542 75bd 64a4 03be
00000040: 719a a7be 8868 f1bc 2ed8 093d 470d a5be
00000050: 7775 8dbd 4102 debb 4b0b 953d 933b aa3a
00000060: 0223 b33d 8b8e e13c 6d06 88bc f0ee 88bd
00000070: 66cf e0bd 9aad 153c 3686 8c3d 440c b73d
00000080: d1ba 2b3d 8a74 c9bd 9666 5bbd 4f48 22be
00000090: 6691 653b ce4b d13d 03f9 8bbd 4110 b03d
000000a0: aaff 47bd 1991 7bbd 0866 e43c ea05 d0bb
000000b0: 6403 45bc 2683 61bd 9e85 133d ba3b 9c3d
000000c0: 508b 1cbe 900b 43bd 6a47 7fbe 6509 95bd
000000d0: 78c1 a4be ec93 843c 460c e43b fd6b d83d
000000e0: 2ff7 e43c f3d2 5dbe f320 94bd 6da0 c93d
000000f0: b76f c53d 6373 efbd 619a b63d b3ed f73d
0.018011127 -0.10034358 -0.086736314 0.15701644 -0.049727514 -0.17921682 0.00071994273 -0.00106821
-0.12918308 -0.054982312 -0.023629246 -0.0921486 -0.0077020777 0.029141877 -0.05987801 -0.12855679
-0.32735017 -0.02946879 0.03365343 -0.32236692 -0.0690717 -0.006775171 0.072775446 0.0012987725
0.087469116 0.02753379 -0.016604627 -0.06686199 -0.10977058 0.009135628 0.06861536 0.08937886
0.04192621 -0.09836681 -0.05356463 -0.15847896 0.0035029291 0.10219537 -0.068346046 0.0859685
-0.048827805 -0.061417673 0.027880684 -0.0063483613 -0.012024734 -0.055056714 0.0360161 0.076285794
-0.15287519 -0.04761845 -0.24929586 -0.072771825 -0.32178855 0.016183816 0.006959471 0.10567472
0.027949898 -0.21662502 -0.07232847 0.09845052 0.096404485 -0.1169193 0.08916164 0.121058844

fc2.weight f4 [32, 64]
00000000: 6e7f 61be 2814 9dbd 53bc 2e3c fcef 5c3e
00000010: fc9b 7c3e 75c3 7ebd 2155 4f3e 3a88 b83e
00000020: 06c7 3d3e 3a6a 38be e533 40be 7f70 0dbe
00000030: 0b77 1f3e 7597 3ebe d2a2 dc3d 0a4e 553d
00000040: 1aa3 443e 7012 63be aadc 563e cee4 ae3d
00000050: d05d e3bd 156c 45be b4aa 73be 80c0 d4bd
00000060: b6db d43d 1258 9cbe ac9c 503e 0750 783e
00000070: 16db f3bd 35b9 e03e 4f7f cdbd ce29 923e
00000080: 1972 a33e fd80 203e a030 24be 2803 953e
00000090: c97d 19be f0ad 393e 4d89 8c3e 14d6 aa3e
000000a0: 2011 61be b448 1e3e 6886 9cbe 97f7 65be
000000b0: c705 40be d89c c13e 6186 b63e f3aa 533e
000000c0: 9570 8a3e f091 4c3d b702 02be 2526 2f3e
000000d0: af12 c43d 78c9 c0bd 1d08 a3be 0bf6 ec3d
000000e0: 544f fc3d dda6 13be 8d37 acbd 69fa 4dbe
000000f0: dcad 86be fc9b 4fbe 6ee4 20be 4689 683e
00000100: d881 013e 6104 a83d 3c09 e53d 0690 d63d
00000110: 026a 713c 9314 c9bc 34a0 ff3c f3ea 0c3e
00000120: 0e36 55bd 417b be3d ff74 893d 7083 5d3e
00000130: 241b ba3d db6b 893e 746d c73c 565b 75bd
00000140: b804 98bd 1eca ad3e b137 783e 0184 653d
00000150: 1b42 673c e577 0c3d 98f7 823e b9b3 333e
00000160: 1a89 1dba d65e c13c 8987 723e 74bf fc3d
00000170: 0b4e b0bb 48a8 9d3e 56aa 323e 9679 103e
00000180: 5c14 ab3e 3329 2ebe 92b2 0b3e dab5 c33d
00000190: b4cc 503d 17f7 573e ed93 7d3e 7250 233c
000001a0: b29a 0b3e 0581 1a3e 9c5c bbbd db52 0e3e
000001b0: 6154 0cbd 35a9 ad3e 6a20 423d be04 913e
000001c0: 3cca 383e 7c75 c63d e5d0 d4bd c261 8e3d
000001d0: 5088 30bd 53f2 e03d dba3 c3bd 47af 693e
000001e0: acf2 18bd 07eb 223d d1fc 46bc 271f 563c
000001f0: 267d d63d 13da 32bc 4f7e 0d3d e23d 8d3e
00000200: bd55 0bbe a7a5 06be 7112 d73d 48b2 7f3e
00000210: 7136 dd3d 3724 eb3d 5a84 4c3e 901e 283e
00000220: cb62 f03d 908c bfbd 02dc 8fbd 15fe 1abe
00000230: b579 853e c29f 44bc d769 5a3e aee6 7e3e
00000240: 7ddc 2e3e df71 1bbe 6684 423e 06f8 013e
00000250: e5b6 1fbe 968e 10be d7ec 7ebc aa87 4bbc
00000260: c274 b43c 439c bdbc 74dd ad3e f211 6f3d
00000270: 369d f9bc abdc 5d3e dc67 803d c0eb 013e
00000280: 408c 863e 2818 5f3e f858 94bc d938 683e
00000290: 7a28 51be 1802 583e 7b22 953e 66d6 ad3d
000002a0: 0203 8abe f882 7c3e aab0 b9bd 944e 01bd
000002b0: dc4b cd3c 89df a93e 5258 7c3e 81f1 6e3e
000002c0: 058c 0b3e fcdf 3b3e 195f c5bd 0d99 e03d
000002d0: db20 f13d 9075 00bc 1a4c 86be bf0e 8f3d
000002e0: 19c2 803e e831 9abc b5fa 2dbd d446 243b
000002f0: 470d bcbd d135 cfbd 670a c0bd 7d2c e03d
00000300: 60fe 74bd b60e 8dbe e005 40bd edf4 2e3e
00000310: afdd 1d3e 381c 863d b08e 693e 7aff 783e
00000320: f20f f93b 750c d7bd 2171 33be 582e e5bd
00000330: 523d 533e 5775 25be 2a52 9b3e fbc9 833d
00000340: eee1 af3d 2eb0 5fbe 4878 a43e e988 f73c
00000350: be59 45be 49e5 3abe 6d91 28be 2cc6 54be
00000360: b421 833e da9e 85be 0108 493e a713 223e
00000370: b8b0 4abe 69a1 bd3e 2bb5 5bbe c31f 1f3e
00000380: 5a9d be3e 49fe 4f3d 042f 53be 4109 b03e
00000390: a16a 26be c94c 633e ea3c 223e bd62 c43e
000003a0: 6ba3 54be d4cc 263e 513e 36be b709 8dbe
000003b0: c460 06be 3c80 993e 4938 913e 170b da3e
000003c0: 3e7f d93d 3f47 103e 52bb 4cbe 4d27 a73e
000003d0: 4fd2 1bbd 8977 2fbe 9ca7 85bd 9e8c 0c3e
000003e0: ae94 133e a47e 90be f8b8 00be a25d 58be
000003f0: d622 51be 9b3f 643c 5aa9 e2bd 95a2 b43e
-0.22021267 -0.0766986 0.010665017 0.21575922 0.24668878 -0.06219812 0.20247318 0.36041433
0.18532953 -0.18009272 -0.18769796 -0.13812445 0.15572755 -0.18612464 0.10773243 0.052076377
0.19202843 -0.22175002 0.20982614 0.08539735 -0.11101878 -0.19279511 -0.23795587 -0.10388279
0.10393469 -0.30535942 0.20372266 0.24249278 -0.11907022 0.43891302 -0.10034048 0.2854752
0.31922987 0.15674205 -0.16034174 0.2910397 -0.1498939 0.18132758 0.27448502 0.33366454
-0.21979189 0.15457422 -0.30571294 -0.2245773 -0.18752204 0.37814975 0.35649398 0.2067068
0.27039018 0.049943864 -0.12696348 0.17104395 0.09573876 -0.09413427 -0.31842127 0.115703665
0.12319818 -0.14419122 -0.08409033 -0.20115055 -0.2630452 -0.20274347 -0.15712139 0.22708616
0.12647188 0.0820396 0.11183402 0.10476689 0.014734747 -0.024545943 0.03120432 0.13761501
-0.052053504 0.093008526 0.06711768 0.2163217 0.09087208 0.268401 0.024344184 -0.059901558
-0.07422775 0.33943266 0.24239995 0.05603409 0.014114882 0.034294028 0.25579524 0.17549028
-0.00060095044 0.023604792 0.23684515 0.12341204 -0.005380397 0.3079245 0.1744779 0.14108881
0.3341397 -0.17007904 0.13642338 0.0955617 0.05097647 0.21090351 0.2476346 0.00996791
0.1363323 0.1508828 -0.09148523 0.13898794 -0.034260157 0.33918157 0.047394194 0.2832393
0.18045896 0.09690377 -0.10391406 0.069522396 -0.043098748 0.1098372 -0.09552737 0.22820769
-0.037340805 0.03977492 -0.012145237 0.013068951 0.10473089 -0.010916251 0.034544285 0.27586275
-0.13606925 -0.13149129 0.10501564 0.24970353 0.108013995 0.11481517 0.19972363 0.16417909
0.11737593 -0.09352982 -0.07024385 -0.15135987 0.26069418 -0.01200098 0.21329437 0.24892685
0.17076297 -0.15180157 0.18995818 0.1269227 -0.15597112 -0.14116892 -0.015559397 -0.012422482
0.02202833 -0.0231458 0.33958018 0.058366723 -0.030470472 0.2166621 0.062698096 0.12687588
0.26278877 0.21786559 -0.01810883 0.22677936 -0.20425597 0.21094549 0.2912787 0.08488159
-0.2695542 0.24659336 -0.09066899 -0.03156908 0.025060587 0.33178356 0.24643067 0.23334314
0.13627632 0.18347162 -0.09637279 0.10966692 0.11773845 -0.007840529 -0.26229936 0.069852345
0.25148085 -0.018822625 -0.04247542 0.002506663 -0.0918222 -0.101176865 -0.09376984 0.109459855
-0.059812903 -0.27550286 -0.046880603 0.1708562 0.15416597 0.06548351 0.22808337 0.24316207
0.007600778 -0.10500423 -0.17523624 -0.1119048 0.2062886 -0.16158043 0.30336124 0.06435009
0.085880145 -0.21844551 0.32123017 0.030216651 -0.19272515 -0.18251528 -0.16461726 -0.20778722
0.2561165 -0.26097757 0.1963196 0.1582781 -0.19793975 0.3703721 -0.21455829 0.1553946
0.37229425 0.050779615 -0.20623404 0.3438206 -0.16251613 0.2219726 0.1584355 0.3835658
-0.20765464 0.16289073 -0.1779721 -0.27546474 -0.1312285 0.29980648 0.28363255 0.42586586
0.10619973 0.14089678 -0.19993332 0.32647172 -0.038042363 -0.17135443 -0.065261096 0.13725516
0.14412186 -0.2822162 -0.1257056 -0.21129468 -0.20423445 0.01393118 -0.110674575 0.3528029

fc2.bias f4 [32]
00000000: daa6 b23d 6eed 333e f249 a73c aa71 f73d
00000010: eddc 623e 1a96 8a3d c680 adbd 1c9a ac3d
00000020: 16a2 ac3d ce37 673d d953 993d a34a 67bd
00000030: 1b80 823d 5456 0e3e 9c45 7d3e 17a0 ca3d
00000040: e87d 023e 9536 d33d 9109 7b3d b8a8 723d
00000050: 96ba 88bd 39c5 2a3d d4cd a73d 9d11 b73d
00000060: 7684 eb3d 4aed d3bd adb6 973d 6883 acbd
00000070: eb89 223e d9a1 8f3d 9004 b23d 3da8 8a3d
0.08723231 0.17571041 0.020421002 0.120822266 0.22154589 0.06766911 -0.08471827 0.084278315
0.08429353 0.056449704 0.07486696 -0.056467663 0.063720904 0.13900119 0.24733585 0.09893816
0.12743342 0.10313145 0.06128842 0.059242934 -0.066762134 0.041691992 0.081935555 0.08938906
0.11499874 -0.10347994 0.074078895 -0.08423501 0.15872924 0.07013292 0.086922765 0.0677037

fc3.weight f4 [16, 32]
00000000: e767 033e 5977 04bb c6d9 a43e 58ca 493e
00000010: 0702 72bd 2852 11be dbff e0bd 27bb d53d
00000020: 5417 e33c 15b1 eb3d 8424 563c edee 023d
00000030: a0c8 be3d 3c83 e6bc 7070 c33d 7508 bf3d
00000040: 1e8a 6b3d 549e ecbc e76e 06bd b2ac f93c
00000050: 1475 f5bd eff2 cabd d565 22bd 6c6b 3c3d
00000060: d965 75be e76c 223e df0d dcbc d2d0 8a3d
00000070: 466f 62bd 93a9 4fbd 47b3 6bbd 9d73 a93c
00000080: 4809 ba3e c85a 8f3d 4037 8f3e 117d bb3e
00000090: 8d24 003d 6937 9c3e 6263 d33d 7bf9 61be
000000a0: 5bf9 14be 3e84 af3e 3ac9 2ebe e0b4 9c3c
000000b0: d26f 2b3e f423 a63e 20ae 8a3e 7d6e 833e
000000c0: 54a9 ed3d 8f46 8d3e 1ee0 44bd 981c 7cbe
000000d0: 2894 edbc e8e2 333e 2df1 07be 1d44 ac3e
000000e0: efb3 713e 6e65 d03d c5f6 a8be 181c 72bd
000000f0: 1848 723e c7a0 18be f22b 96be 50de debd
00000100: d0d7 f3bc 3529 49be e0db 7ebc a3d3 17be
00000110: 0e80 d63d 8037 2ebd 8015 453b 40ec f53d
00000120: b8cc b33d b3f9 223e dbaa e9bd fe2f c2bd
00000130: b687 d93d 7c79 02bd 60d9 93bd 139e 99bd
00000140: e8de cebd 9643 03be 10ac 17be 1db4 f53a
00000150: 7620 d13d d7ae 023d 6580 2cbd b012 583d
00000160: 10af 3dbd c915 d3bd 2cc9 c0bd f89b 30be
00000170: dc28 fbbd a6ed b4bd 25f6 d6bd 7374 2cbd
00000180: d212 1b3e 6aa1 8c3d 7437 093e f20c 993e
00000190: 08b1 2d3e 2744 8f3e d03f c4bc ba48 54be
000001a0: bb76 67be 44f4 313e fffc d1bd 66b3 c13c
000001b0: 0fce 6a3e a93f 8d3e 3a16 123d 9a53 973e
000001c0: 06d1 4e3e d2e4 1e3e 6f46 8abe f1f6 2bbe
000001d0: 0084 883d c7e2 8c3e 1378 1ebd ed76 2c3e
000001e0: e0e1 8e3e 401f 0c3c 3a7e 96be 988d 3ebd
000001f0: 56ce 593e ca1e b7bd d6d8 d0bd c57e 49be
00000200: 31fb 21be e254 8c3e 89ca 06be 0e81 35be
00000210: 10dc aa3e f426 57be 63fa 343e 427d a83e
00000220: 4948 493e 69fb 76bd 9305 943e b934 b83c
00000230: 87c1 70bb a39d e7bd aaa0 3a3e 34d9 b7bd
00000240: c46b 6e3d 3dd6 dbbd 6e50 c83e 922d 803e
00000250: 7097 5d3c fcbd 10be 3154 d43e c891 c63d
00000260: 5e46 98bd 24a8 d8bd 5775 e63e d401 fcbd
00000270: 46ad d5bc 8a39 103e cc2f d73e 38b2 643e
00000280: 5a24 9ebd 628f 273e 97ae c8be fff1 83bd
00000290: a22b b73e 7467 26be 3a87 e83d a3c5 303e
000002a0: 4965 9a3e 61bf 18be d8de ad3e b065 2d3a
000002b0: aeff 6bbe a29b 90bd 1c18 4c3e 337a 17be
000002c0: 40ac 52be e748 7ebe 12a0 b13e 3537 fb3e
000002d0: 8580 083e 6d01 b4bd 3d4d 083f c065 6cbe
000002e0: 423d 74be a008 47bc 4cca e33e 5bf7 043e
000002f0: f6f7 46bc 69dc fd3e 10b0 f43e fee7 e83e
00000300: cb92 453d adba f5bb a77f 90ba 6048 3d3e
00000310: 6eeb 293e 1472 863e 4836 a9bc 3959 b2bd
00000320: 1343 14be 77e6 713e 1774 a9be 4b7e 3f3e
00000330: 7762 c53e 084f 5b3e d5c4 573e e997 2d3e
00000340: d196 473e b0a7 373e 75be a8be f5a4 02be
00000350: e132 113e a5fc 8b3e c495 62be dff5 9d3e
00000360: 2da8 8f3e a08b fbbd 2bee 09be 56de ca3d
00000370: b761 0cbd 984e 57be 1c74 4ebe daec a1be
00000380: fc92 9a3e c551 8f3e e270 1e3e 288e 9b3e
00000390: b4f7 413e b91a ab3c 9f7a edbd 20db 013d
000003a0: 8681 33be 3728 c0bc 7391 83be 12f9 513e
000003b0: bd5e 373e ab9c 443d ad02 473e 0807 313e
000003c0: 692c 463d 2713 8e3e 2263 c5bd b4a1 173c
000003d0: 31b5 103e 07d3 683e b577 903d 5ba1 8c3e
000003e0: 1cd1 163d 40ac 5fbc 9d9f 2bbe 7308 33be
000003f0: 4889 bd3d db09 9ebd f603 bebc 65e3 4ebe
0.12832604 -0.0020212738 0.32197398 0.19706094 -0.059083965 -0.14191496 -0.109863006 0.10436087
0.027721085 0.11508385 0.013070229 0.03196614 0.0931561 -0.02813875 0.0954293 0.09327785
0.057504766 -0.02888409 -0.03282061 0.030477855 -0.119852215 -0.09909617 -0.039647896 0.046000883
-0.23964633 0.15861855 -0.026862083 0.067781106 -0.0552819 -0.050698828 -0.05754402 0.020685012
0.36335206 0.06999737 0.2797184 0.36618856 0.031284858 0.30511025 0.1032169 -0.22067825
-0.14548247 0.3428058 -0.1706895 0.019129217 0.16741875 0.32449305 0.27085972 0.25670233
0.116045624 0.27592894 -0.048065297 -0.24620283 -0.02900131 0.17567027 -0.13275595 0.33645716
0.23603795 0.10175596 -0.3300077 -0.059108824 0.23660314 -0.14905082 -0.29330403 -0.108822465
-0.029765993 -0.19644625 -0.015555352 -0.14826827 0.10473643 -0.042533398 0.003007263 0.12007952
0.087792814 0.15915565 -0.11409541 -0.0948181 0.10621588 -0.031854138 -0.07219195 -0.075008534
-0.1010111 -0.1281875 -0.1481173 0.0018745695 0.102112696 0.03190502 -0.042114634 0.052752197
-0.04630953 -0.103068896 -0.094133705 -0.17246997 -0.12263653 -0.0883439 -0.10496167 -0.042103242
0.15143898 0.06866725 0.1340006 0.2989269 0.16962063 0.27981684 -0.02395621 -0.20730868
-0.22603886 0.17378336 -0.10253333 0.023645114 0.22930168 0.2758763 0.03566573 0.2955597
0.20196924 0.15516976 -0.27006862 -0.1679342 0.06665802 0.27516767 -0.03868873 0.16842242
0.27906704 0.008552372 -0.29393178 -0.046521753 0.21270117 -0.089414194 -0.10197608 -0.19677265
-0.15818478 0.2740851 -0.13163199 -0.17725012 0.3337102 -0.21010953 0.1767364 0.32908064
0.19656481 -0.060298357 0.28910503 0.022486078 -0.0036736445 -0.11309364 0.18225351 -0.08976975
0.058208242 -0.10734222 0.39123863 0.25034767 0.013524875 -0.14134973 0.41470483 0.09695774
-0.074352965 -0.10578945 0.45011398 -0.12305036 -0.0260836 0.1408445 0.42028654 0.2233361
-0.07721777 0.1636329 -0.391957 -0.064426415 0.35775477 -0.16250402 0.113539174 0.17262892
0.301554 -0.14916755 0.3395908 0.0006614579 -0.23046753 -0.070609346 0.19931072 -0.14792709
-0.2057352 -0.24832498 0.34692436 0.49065557 0.13330276 -0.087893344 0.53242856 -0.2308569
-0.23851493 -0.012148052 0.44490278 0.12984984 -0.012144079 0.49582222 0.47790575 0.45489496
0.048235696 -0.00749906 -0.0011024371 0.1848464 0.16593716 0.2625891 -0.020655766 -0.08708424
-0.14478712 0.23623072 -0.33096382 0.1870052 0.38551685 0.21416867 0.21071179 0.1695248
0.19491126 0.17935061 -0.32957807 -0.12758239 0.14179565 0.2734119 -0.22127444 0.30851647
0.28057995 -0.12282491 -0.1346976 0.099056885 -0.034272876 -0.21026075 -0.2016148 -0.31626016
0.30190265 0.27992073 0.15472749 0.30381894 0.18942147 0.020886766 -0.11595654 0.031703115
-0.17529878 -0.023456676 -0.25696906 0.20505169 0.17907234 0.048000973 0.19434614 0.17287838
0.048382197 0.27748987 -0.09638049 0.009254862 0.14131619 0.2273675 0.07054082 0.27466854
0.036820516 -0.013651907 -0.16760106 -0.17483692 0.092547 -0.077167235 -0.023195248 -0.20203932

fc3.bias f4 [16]
00000000: 927d edbd b89c 4f3e 67ad 15be bf0b 673e
00000010: 0f1d 863d ef79 343e 528d 333e d0b8 a7bc
00000020: 54bf 9b3d 8afe 18be 7dda 033e 4fa4 4b3e
00000030: bcc7 513d 9c2b 2f3e 1b5d 913e 5712 613e
-0.11596216 0.20274627 -0.14616929 0.22563075 0.06548511 0.17624639 0.17534378 -0.020473868
0.07604852 -0.14940849 0.12876315 0.19886898 0.051215872 0.1710648 0.28391346 0.21979652

fc_out.weight f4 [1, 16]
00000000: 270c 83bd 8e7a 8abe 7890 5fbd 7167 d2be
00000010: f1de d23e ee29 0a3f 1911 debe 67d8 a7be
00000020: 48de c4be 74fc 80bc 4dca abbe c63c c33e
00000030: 1e14 d6be d158 c93e 1252 53be 10fb 87be
-0.06398802 -0.27046627 -0.054581136 -0.41094545 0.41185716 0.5397023 -0.4337242 -0.3278229
-0.38450837 -0.015745379 -0.3355278 0.38132304 -0.41812223 0.39325574 -0.20636776 -0.26558733
