outputs/pytorch_models/hmtl_model.pth (torch, 80693 bytes, 19 tensors)

shared_fc1.weight f4 [128, 46]
000000 c4 3f 40 3e c8 f0 1b be e0 2e b8 bb 51 b2 d9 3d
       0.18774325 -0.1522857 -0.0056208223 0.10629714
000010 39 80 23 3b f4 8c 2b 3e 38 74 b3 bd 8b 4a f9 bc
       0.0024948253 0.16752988 -0.08762401 -0.030431053
000020 d4 e3 82 3d ee ee 4e bb 7c 66 18 bd c2 10 0b be
       0.06391111 -0.0031575519 -0.03720711 -0.13580611
000030 f9 87 5f 3d 26 66 5e bd aa a6 4b be 0a 8d 1d be
       0.054573033 -0.054296635 -0.19887796 -0.15385833
000040 9a cb 09 3d 6c 51 d7 3d 2f 8f 82 bd 35 11 3c bd
       0.033641435 0.10513577 -0.06374966 -0.045914847
000050 a3 19 a0 bc 83 f9 81 3c 4e 75 33 be a7 c1 02 3e
       -0.019543475 0.015866047 -0.17525217 0.12769185
000060 68 97 74 bd 5a 41 18 3e 5b 44 f5 3c 9d ae 02 3e
       -0.059714705 0.1486868 0.029939821 0.12761922
000070 d3 d4 dc bd 56 fb ea 3d 90 70 46 3d e3 b4 21 3d
       -0.107827805 0.1147372 0.04844719 0.039479148
000080 fc 1b cd 3c 32 d1 d1 bd c5 fb 17 3e f7 ed 40 bd
       0.025037758 -0.10244979 0.14842136 -0.04710194
000090 06 d7 d2 bc 1f ae 1c bd 8c 04 0b 3e 1f b6 8f bd
       -0.025737297 -0.038251992 0.13575953 -0.07017159
0000a0 51 33 e7 3d 8d 1d 8b 3d 61 57 91 bd 72 f9 60 bd
       0.11289085 0.06792746 -0.07096744 -0.05492539
0000b0 5c 8f 98 bb f6 e7 35 be 4b 22 73 bc 2d 8d b6 3d
       -0.0046557616 -0.17764267 -0.014839719 0.08913646
0000c0 f6 cc ef 3d bc 45 ac bb 3e 49 e2 3b b1 1a fd bc
       0.11709015 -0.0052573364 0.006905704 -0.030896517
0000d0 06 36 c1 bc ae 0d 00 3c 09 54 d1 bd 12 cb 78 be
       -0.02358533 0.0078157615 -0.102211066 -0.24296215
0000e0 67 2e c0 bd e0 82 36 3e b3 47 bc 3d 0f 71 f4 bd
       -0.093838505 0.17823362 0.09193363 -0.11935627
0000f0 88 d2 b6 3d bb db 1b be 26 11 26 3e dd ee 3a 3e
       0.089268744 -0.1522054 0.16217479 0.18255182
000100 d4 ca 42 3c 41 7c 1e bd 6e ce c1 bc 4c 9c df 3d
       0.011889178 -0.038692717 -0.023658004 0.10918483
000110 90 e5 bc 3d c7 99 28 bd 43 35 76 3d c0 77 e5 3d
       0.09223473 -0.04116228 0.060109388 0.11204481
000120 f0 dc 0a be 05 2b 04 3d 2c 3b 3c 3e a9 e1 4a 3d
       -0.13560843 0.03226759 0.18381947 0.049531613
000130 d2 de 21 3d cf 5f de 3d eb fe 53 3a bb b7 cc bc
       0.03951914 0.10858118 0.0008086997 -0.024989953
000140 b5 31 ce bd 41 95 3c 3e c8 5f 22 3b 76 10 d5 bd
       -0.100680746 0.18416311 0.0024776328 -0.1040353
000150 34 b7 73 3d da bc e9 3d 9f ae d8 3c fc 4b 14 be
       0.059500888 0.11412974 0.026450453 -0.1448211
000160 54 bf 1f be 60 f2 04 be 9b 7b aa 3c a7 80 79 bc
       -0.1560033 -0.12983084 0.020810893 -0.015228427
000170 03 06 f2 3d 3b 9f cd bb 76 5b 2c be c2 8e d7 3c
       0.11817553 -0.0062750853 -0.16831765 0.02631319
000180 19 1d 37 3d 67 e4 b0 bd c3 5e c5 3d 61 e9 4d be
       0.044705484 -0.08637314 0.09637215 -0.20108558
000190 94 72 a9 bc de e4 63 bd cf b0 91 bd 7b 2f dd 3d
       -0.020684518 -0.055638187 -0.07113802 0.10800072
0001a0 62 b9 41 bd 9f 83 3a 3e b6 2d 40 3d 45 7f 24 be
       -0.047295935 0.18214272 0.046918593 -0.16064174
0001b0 ba a8 fb bd f1 51 02 3e b0 9e a9 3c 1d be 1f be
       -0.122880414 0.1272657 0.02070555 -0.15599866
0001c0 46 fb 95 b9 e6 ff 10 bd 34 5d a7 3c 9e 7a 8b bb
       -0.00028606708 -0.035400294 0.020430185 -0.0042565605
0001d0 fa ff d6 bd d4 a8 0c 3e 5a 34 15 be b5 18 0c 3e
       -0.104980424 0.13736278 -0.14570752 0.136813
0001e0 98 a2 26 bd 90 ed 41 bd af 1d 4b be 37 75 2f 3e
       -0.040682405 -0.047345698 -0.19835542 0.17134558
0001f0 9f 84 1f 3e 47 f0 75 bd 68 03 be 3d 06 72 cf 3b
       0.15577935 -0.0600436 0.092779934 0.0063307313
000200 07 f3 2e 3d c6 26 e2 bd 20 2f 40 3c 9a 39 64 be
       0.042712238 -0.11042552 0.0117299855 -0.22287598
000210 1f cc 9b bd 8f 1d 84 3d 48 24 a7 bc 15 06 12 be
       -0.076072924 0.0645095 -0.020403042 -0.14260133
000220 b1 d3 dc 3d 8d b0 06 bc 7d 17 0a bd 8c 9b 0b be
       0.107825644 -0.008220804 -0.033713806 -0.13633555
000230 34 bd a5 3c 4c dd 9c bc 87 43 c9 3c fa 0d 29 3e
       0.02023182 -0.019148491 0.024568332 0.16509238
000240 53 f0 c7 bd 5c e8 9a 3d 8c d1 08 be 6f 68 06 bc
       -0.09762635 0.0756385 -0.13361186 -0.00820361
000250 e7 22 20 3d 5d 84 04 be cc 1d 9c bd 03 c5 33 be
       0.039095785 -0.12941118 -0.07622871 -0.17555623
000260 f5 a5 b5 3c 2e 01 16 3e 06 06 38 3d 17 a5 0e be
       0.022173861 0.14648888 0.04492762 -0.13930164
000270 84 d6 14 3e 25 0d 2b be 83 61 a0 bd f1 60 d2 bd
       0.14534956 -0.16704233 -0.07831099 -0.10272396
000280 5b b0 09 3c 4a 89 45 3c cf 8b 60 3d 08 5d 2f be
       0.008403863 0.012056658 0.054820832 -0.17125332
000290 8d bb 96 bd a4 93 6d 3d 5f 40 33 3b 89 ad b3 3c
       -0.07359991 0.05800213 0.00273516 0.021933334
0002a0 be 26 35 bd 15 18 0c bc 05 ce 03 3d bc 76 32 be
       -0.0442264 -0.0085506635 0.032178897 -0.17428106
0002b0 c4 ea 1c be 3a da eb 3d 7e d8 69 3e 07 74 ca 3d
       -0.15323931 0.11516233 0.22836491 0.09885412
0002c0 26 82 11 bd 47 43 1d bd 4c fe fb bc 67 b2 fe 3a
       -0.03552451 -0.03839424 -0.030760907 0.001943183
0002d0 c1 b0 34 bd 34 31 65 3d 8e bc c3 3d 64 91 cc bb
       -0.04411388 0.055955127 0.09557448 -0.006242918
0002e0 0b 71 43 be 8b e8 64 be d6 6b f5 3d 1d a7 9c 3d
       -0.19086091 -0.22354333 0.11983459 0.07649062
0002f0 6c c4 d7 3d 83 9d 2d 3d 9f ea bd bd 57 9d 6a 3d
       0.105355114 0.042386543 -0.09273266 0.057278957
000300 fd c6 0f 3e 34 45 2c be 46 f3 25 3d 2a 35 cd bd
       0.14040752 -0.16823274 0.040515207 -0.10019906
000310 38 fc 16 bd cd 63 9f bd b9 ce e9 bd 60 79 ee bd
       -0.03686163 -0.07782707 -0.11416382 -0.11644244
000320 3c d6 85 3c 2c 58 04 3e 6d a5 3c bd 13 d5 fe 3d
       0.016337506 0.1292426 -0.0460562 0.124429844
000330 ac 7f 31 3d 3e c4 71 3e 34 88 bf 3d db 2f 28 be
       0.043334648 0.23610017 0.093521506 -0.16424505
000340 14 7e fa 3d 60 35 84 bd f0 99 4d 3d 3f cd 5e bd
       0.12231079 -0.06455493 0.050195634 -0.054394957
000350 f9 98 c5 bb 63 ee ce bd 42 72 46 bd 24 9c 1d 3d
       -0.0060301987 -0.101040624 -0.04844881 0.038478985
000360 52 68 ff 3d 87 d9 1f 3e c1 43 d9 bd 7e 99 aa 3d
       0.124710694 0.15610324 -0.10608626 0.083300576
000370 7f 31 b3 bd f9 c1 44 3d fc c8 87 3d ed e0 83 bd
       -0.08749675 0.04803655 0.066301316 -0.064393856
000380 31 b3 79 3d 29 cc c6 bd d6 be 9a bd 60 27 b0 bd
       0.060961906 -0.09706909 -0.0755593 -0.0860126
000390 43 cb 1a 3e 65 f7 14 be 60 03 b4 bb 08 20 e8 bd
       0.151166 -0.14547499 -0.0054935664 -0.113342345
0003a0 2e 85 75 3d fe f4 26 bc 01 ac 02 be 4c 9e 11 bc
       0.059941463 -0.010190247 -0.12760927 -0.008887839
0003b0 03 94 cf 3d 5b d4 07 be bb 68 b0 bd 4b 69 79 bd
       0.10135653 -0.13264601 -0.08613726 -0.06089143
0003c0 75 c8 f9 bd 9b 7a 3b 3e 3d a7 eb bd ed 3b 03 3e
       -0.12196437 0.18308489 -0.115065075 0.12815829
0003d0 c4 22 45 bd 75 df 4e bd 02 34 62 3d 0a b7 91 3d
       -0.04812886 -0.050506074 0.05522538 0.0711499
0003e0 13 32 2d be da fa bc bd fc 57 89 3b b8 c0 a8 3d
       -0.16913633 -0.09227534 0.0041913968 0.08239883
0003f0 dc 99 2e be c5 5a 9a 3d b8 d7 b8 3d d5 c6 de 3d
       -0.1705088 0.07536844 0.0902552 0.10877768

shared_fc1.bias f4 [128]
000000 36 1a 8d bd 5f ba ef 3d 8c cb 92 3d c8 6b 04 3b
       -0.06889765 0.11705469 0.0716773 0.0020205844
000010 8f 86 76 3d f2 23 d3 3d 75 03 b2 bd f7 1b 0d 3e
       0.06018692 0.103095904 -0.086920656 0.13780199
000020 42 5c 50 3d e7 a6 ca 3d bc 86 2d 3b 71 16 0e bd
       0.050869234 0.09895115 0.0026478013 -0.03468937
000030 90 98 00 3e 25 39 fc 3d 75 13 0b 3c 43 42 6b 3d
       0.12558198 0.12315587 0.008488526 0.05743624
000040 22 2a 56 bd 74 7d 71 bd a0 e5 f3 bd 1a bb d1 bd
       -0.052286275 -0.058957532 -0.11909032 -0.10240765
000050 29 6c 33 3d e9 e9 d7 bc 03 5b 12 be 2e 07 b5 bd
       0.04380432 -0.026356654 -0.1429253 -0.0883926
000060 e9 70 ed 3d 8e 63 1a 3d 16 d4 89 bc 09 7d bf 3d
       0.115938015 0.0376926 -0.016824763 0.093500204
000070 27 9b 04 bd 18 39 de bd de c6 ed 3d 24 ce 03 3e
       -0.032374527 -0.108507335 0.116101965 0.12871605
000080 c9 54 ff bd b6 21 e6 bd 54 12 08 3e 87 eb 8d 3d
       -0.12467343 -0.112368986 0.13288242 0.06929689
000090 c8 2c 8c bd 80 5b 40 bd a9 81 5f bc b9 b3 d8 bd
       -0.06844479 -0.04696226 -0.013641753 -0.105811544
0000a0 4e 12 96 3d 11 48 0b 3e 29 c5 9f 3d 85 04 fd 3c
       0.0732771 0.1360171 0.07801277 0.030885944
0000b0 bd 1a 7d 3d da ec 07 bb 75 88 fe 3d a5 50 11 bd
       0.061793078 -0.002074054 0.12428371 -0.0354773
0000c0 7f f0 ba 3d 34 80 c6 bd bd 50 c6 bd 74 00 e2 3d
       0.09127902 -0.096924216 -0.09683368 0.11035243
0000d0 78 ef e2 3d 61 3b 89 bd ec 74 b7 bd 29 4f 10 3e
       0.11080831 -0.06700779 -0.08957848 0.14092697
0000e0 71 7a 12 3e a3 3c f3 bd 39 2c 55 bd b5 37 71 bd
       0.1430452 -0.118768 -0.052044127 -0.058891017
0000f0 6b 57 87 3c 40 91 02 3e 0a 37 e1 3d 96 0e 7a 3d
       0.016521176 0.12750721 0.10996826 0.061049066
000100 b6 77 81 3d 91 68 8b bd 15 75 bc bd 48 3f 02 be
       0.06321661 -0.06807054 -0.09202019 -0.12719452
000110 b8 08 ac bd 01 c9 a5 bc f5 ba f8 bc 3f 11 10 be
       -0.084001005 -0.020237448 -0.030362586 -0.14069079
000120 e2 f7 06 3d bb bc fd 3c a9 78 d8 bd 50 17 5d bd
       0.032951243 0.030973783 -0.10569889 -0.05397731
000130 30 78 d9 bd d3 80 90 3c 51 dd 8d 3b 4a 57 9a 3d
       -0.10618627 0.017639553 0.0043293615 0.0753618
000140 3c 1e 85 3d e7 02 40 3d ec ca ef 3c d9 e5 22 3d
       0.064999074 0.046877768 0.029271565 0.03976998
000150 f9 f8 11 be 28 21 03 bd c5 8b a2 3b 06 9c ac 3d
       -0.14255132 -0.032014042 0.0049605095 0.084281966
000160 a5 8f 0b 3e eb 3b 60 3d 03 4f a0 bd 16 f7 63 bd
       0.13629015 0.054744642 -0.0782757 -0.05565556
000170 45 c7 1c 3d 6b 01 a1 bd f8 7d 78 bd e5 a7 c6 3c
       0.038275976 -0.078615986 -0.06066701 0.02424998
000180 a3 86 96 3d 64 71 e7 3d 3b a0 79 bc 42 ea e0 ba
       0.07349899 0.113009244 -0.015235956 -0.0017159658
000190 c5 87 0c bc 5d ed 26 3c c8 d2 01 3e 34 1f e7 3c
       -0.008577292 0.010188428 0.12678063 0.028213121
0001a0 4b df b0 bd 2c 84 26 b7 d7 fc fe bd f5 66 35 3d
       -0.0863634 -9.925145e-06 -0.12450569 0.04428764
0001b0 3c 72 8e 3d 80 60 16 be 3b ac 86 3c 9f 80 fb bc
       0.06955382 -0.1468525 0.016439548 -0.03070098
0001c0 59 42 10 be e2 3d a4 bc a1 1e 0d 3e 01 3c 52 bd
       -0.1408781 -0.02004904 0.13781215 -0.051326755
0001d0 85 9c 62 3d f2 ad 23 bc 0e 64 e8 3c 45 6a f5 3c
       0.05532505 -0.009990202 0.028368022 0.0299579
0001e0 af db 27 3c ae 1b e8 3d 46 9b 2c bd d6 ef 10 3e
       0.010245248 0.113334045 -0.042140268 0.1415399
0001f0 6d 7c e1 bd 32 97 09 be 90 bb 17 bc f5 9f 4c bb
       -0.110100605 -0.13436583 -0.009261027 -0.0031223272

shared_bn1.weight f4 [128]
000000 55 cd 75 3f 88 d4 7a 3f 58 28 7d 3f e8 03 83 3f
       0.96016437 0.97980547 0.98889685 1.0235567
000010 b0 8f 83 3f d3 82 86 3f 60 52 85 3f cd 32 7e 3f
       1.0278225 1.0508674 1.0415764 0.99296266
000020 60 14 81 3f 4d 35 74 3f 1b 6e 83 3f 52 5a 77 3f
       1.0084343 0.9539383 1.0267977 0.9662219
000030 dd 6d 7d 3f 6c 2d 77 3f de 35 86 3f 80 a3 7e 3f
       0.98995763 0.96553683 1.0485189 0.9946823
000040 7f 9c 78 3f c2 3f 86 3f 41 ee 6d 3f 4e 73 79 3f
       0.97113794 1.0488207 0.9294167 0.97441566
000050 0e ad 73 3f 3f c9 82 3f d0 bb 7e 3f e0 07 83 3f
       0.95185935 1.0217665 0.9950533 1.0236778
000060 7e 7c 86 3f ed 88 7e 3f 0e cb 82 3f db 65 75 3f
       1.0506742 0.9942768 1.0218217 0.95858544
000070 cf 90 79 3f 1d 7b 8a 3f 5e 6c 81 3f f5 1a 84 3f
       0.97486585 1.0818821 1.0111196 1.0320727
000080 21 f3 6c 3f 47 b2 74 3f 49 b4 69 3f b4 fa 79 3f
       0.92558485 0.9558453 0.9129072 0.9764817
000090 67 59 75 3f 27 d9 79 3f 42 bd 74 3f 8b 05 7c 3f
       0.9583954 0.97596973 0.95601285 0.9844596
0000a0 ca 14 7a 3f b2 85 74 3f d2 99 74 3f ea bd 7c 3f
       0.9768797 0.955165 0.9554721 0.98727286
0000b0 34 28 86 3f cf 56 86 3f 5e b3 83 3f fe af 83 3f
       1.0481019 1.0495242 1.0289114 1.0288084
0000c0 bf 0c 6d 3f 0c d4 8b 3f 18 6c 7b 3f 3d ef 7d 3f
       0.92597574 1.0924087 0.9821181 0.99193174
0000d0 25 29 87 3f 28 9d 7d 3f 89 03 7e 3f 3d 4d 80 3f
       1.0559431 0.99067926 0.99224144 1.0023571
0000e0 62 74 81 3f 89 4a 65 3f b8 13 84 3f 2f 1d 7a 3f
       1.0113642 0.89566857 1.0318518 0.9770078
0000f0 3f 77 87 3f 3e 1b 7a 3f 30 c6 73 3f cd 57 84 3f
       1.0583266 0.9769782 0.95224285 1.0339295
000100 27 3f 84 3f ec cc 79 3f 41 59 7f 3f cf 9d 73 3f
       1.0331773 0.9757831 0.99745566 0.9516267
000110 8a 3c 86 3f 1f c3 62 3f c4 d3 81 3f b5 78 80 3f
       1.0487225 0.8857898 1.0142751 1.0036837
000120 43 6a 76 3f 87 c2 7f 3f 2a 7f 6a 3f 63 23 6c 3f
       0.9625589 0.999062 0.91600287 0.92241496
000130 29 6c 82 3f 52 6e 83 3f 15 4f 84 3f 50 b5 80 3f
       1.0189258 1.0268042 1.0336634 1.0055332
000140 ef c4 80 3f cf 88 6b 3f 99 de 6c 3f be b3 85 3f
       1.0060099 0.9200563 0.9252716 1.0445478
000150 92 20 80 3f 5c ce 74 3f e0 5e 83 3f 6a fa 71 3f
       1.000994 0.9562738 1.0263329 0.94522727
000160 9c fd 7e 3f 1e b6 84 3f f9 c9 88 3f 78 e1 7c 3f
       0.9960573 1.0368078 1.0686637 0.9878154
000170 0d 1b 80 3f 42 4e 76 3f 14 00 85 3f f9 80 62 3f
       1.0008255 0.9621316 1.0390649 0.88478047
000180 96 f3 71 3f 03 01 7a 3f ea ab 85 3f e5 8b 6b 3f
       0.9451231 0.97657794 1.0443089 0.9201034
000190 a5 87 76 3f 0a c0 7f 3f 98 e7 76 3f ef 79 71 3f
       0.9630073 0.99902403 0.96447134 0.9432668
0001a0 5d bf 81 3f 9d 65 83 3f 76 de 84 3f ce 2b 88 3f
       1.0136524 1.0265385 1.038039 1.0638368
0001b0 15 23 81 3f 44 b4 74 3f 72 a3 87 3f ef 26 87 3f
       1.0088831 0.95587564 1.0596755 1.0558757
0001c0 5b 3c 7e 3f 72 8b 7b 3f a4 3a 6d 3f 0b 50 85 3f
       0.99310845 0.9825965 0.92667603 1.0415052
0001d0 c7 3a 82 3f d4 86 70 3f 30 fd 89 3f a8 fe 7e 3f
       1.0174187 0.9395573 1.0780392 0.99607325
0001e0 b8 6f 7b 3f a1 be 7b 3f 4f 98 77 3f 02 c6 71 3f
       0.98217344 0.9833775 0.9671678 0.9444276
0001f0 90 b7 85 3f 42 8b 7e 3f c3 2d 7e 3f e3 73 7c 3f
       1.0446644 0.9943124 0.99288577 0.9861433

shared_bn1.bias f4 [128]
000000 d3 71 06 be d8 66 5f bd bf 44 c3 bd b9 70 85 bd
       -0.13129358 -0.05454144 -0.09534597 -0.06515641
000010 1b 7c 0e be 44 b4 2b bd 45 cc 89 bd 4f 0b dc bd
       -0.1391453 -0.04191996 -0.067284144 -0.107443444
000020 ab 6b 11 bd f7 46 37 be bc 87 e0 bd e4 24 1f be
       -0.03550307 -0.17898165 -0.10963389 -0.15541416
000030 51 cc 5e bd 76 a3 20 be 1c c3 5a bd 4b c5 00 be
       -0.05439407 -0.15687355 -0.053408727 -0.12575261
000040 c6 de aa bd bb c7 04 be a6 49 1d be 9d 52 c7 bd
       -0.08343272 -0.12966816 -0.15360126 -0.09732554
000050 1f 94 d2 bd 35 48 0b be eb 9f d3 bd 65 bd 1e be
       -0.10282158 -0.13601764 -0.10333236 -0.15501936
000060 9a 40 16 be 2e 09 92 be d6 4c 4b be 3e b9 ab bd
       -0.14673081 -0.2852263 -0.1985353 -0.083849415
000070 43 4d 92 bd 68 a9 22 be ed 08 46 be 0a 64 db bc
       -0.07143643 -0.15884936 -0.19339342 -0.0267811
000080 f3 dc b1 bd 4a d8 a9 bd 93 d3 20 be 89 a7 16 bc
       -0.08684721 -0.08293207 -0.15705709 -0.009195217
000090 0a 13 6c bd c0 55 54 bd f1 12 cc bc 58 6c b7 bd
       -0.057635345 -0.05183959 -0.024911376 -0.08956212
0000a0 67 69 f9 bd 51 c8 0e be b8 9d 1f be c4 87 18 be
       -0.12178307 -0.13943602 -0.15587509 -0.1489554
0000b0 b8 d6 91 bd 63 c8 78 be 38 2a ae bd 48 27 f2 bc
       -0.071210325 -0.24295191 -0.08504146 -0.029559746
0000c0 ba 60 30 be 5e 51 6b be 8b 74 3e be ab f0 ec bd
       -0.17224398 -0.22980258 -0.18599145 -0.11569341
0000d0 5d b2 06 be fa 0b 79 be 72 c8 08 be 0a 4b 20 be
       -0.13153978 -0.24320975 -0.13357714 -0.15653625
0000e0 91 ef d4 bc 2f e0 79 bd c7 05 5b be 7a cc ea bd
       -0.02599314 -0.061004814 -0.21388923 -0.11464782
0000f0 ab dc f2 bd 19 62 48 be b0 aa 98 bd 6a 19 22 be
       -0.11858495 -0.19568671 -0.07454431 -0.15830007
000100 f3 61 34 be 40 18 26 be 3f 37 b9 bc 0e 5e bd bd
       -0.1761549 -0.16220188 -0.022609351 -0.09246455
000110 20 a2 40 be 0f 95 f1 bd cd d8 24 be 0c 76 ea bd
       -0.18811846 -0.11796009 -0.16098328 -0.11448297
000120 a8 8b 06 be 63 88 4b be d0 54 c9 38 ab e8 31 bd
       -0.13139212 -0.19876246 9.6002244e-05 -0.04343478
000130 a6 2d fa bd 39 b6 20 be 47 13 f5 bd 41 06 86 be
       -0.12215738 -0.15694512 -0.119665675 -0.26176646
000140 e9 c7 94 be 1e 2f 0f be 77 49 33 be 01 7b d5 bd
       -0.2905877 -0.13982818 -0.17508493 -0.10423852
000150 5d fa 2a be c2 62 e2 bd 53 67 f6 bd ce 86 eb bd
       -0.16697069 -0.11053993 -0.12031426 -0.11500321
000160 1b a8 04 be fd a9 66 be b8 02 d9 bd 4b 97 0f be
       -0.12954752 -0.22525783 -0.10596222 -0.14022557
000170 01 e3 86 bd e6 b2 28 be 71 59 a7 bd 1d ac 3d be
       -0.06586266 -0.16474494 -0.081713565 -0.18522687
000180 4a ba 35 be ec c9 1e be 7c a2 42 be cc 78 02 be
       -0.17746845 -0.15506715 -0.19007295 -0.12741393
000190 26 b1 7b be 5d b0 b4 bd d1 cb 74 bd d9 19 3d be
       -0.24579296 -0.08822701 -0.059764687 -0.18466891
0001a0 15 b8 ef bd 1f e6 54 be 14 49 0d be 01 02 18 be
       -0.11705033 -0.20790909 -0.13797408 -0.14844514
0001b0 16 22 b4 bd 58 17 01 be a4 fb c7 bd 47 25 56 bd
       -0.08795564 -0.12606561 -0.097647935 -0.052281644
0001c0 cd 83 0d be f4 cf 48 be 61 dd 0e be 94 c9 f4 bd
       -0.1381981 -0.19610578 -0.13951637 -0.119525105
0001d0 a1 af fc bd c6 dc 1e be 86 32 c6 bd f3 48 61 be
       -0.12338186 -0.15513906 -0.09677605 -0.22000484
0001e0 41 41 5a bd 85 98 2a bd 7d 1e f0 bd 8d 93 5c be
       -0.053284887 -0.04164936 -0.11724565 -0.21540661
0001f0 f9 2a 5a be 43 3f 1b be c7 2e c7 bd 3a 24 12 be
       -0.21305455 -0.15160851 -0.09725719 -0.14271632

shared_bn1.running_mean f4 [128]
000000 82 78 44 bd 73 2d d1 3d 1c ff af 3d 8e b8 19 bd
       -0.047966488 0.10213747 0.0859358 -0.03752952
000010 9e 63 c9 3d 4a 87 b2 3d 7a 48 0e be c8 80 2f 3e
       0.098334536 0.087172106 -0.13894835 0.1713897
000020 cc 89 9a 3d f6 59 9f 3d ba db 2c 3d ca f2 e7 bc
       0.07545814 0.077808306 0.042201735 -0.028314013
000030 06 e4 1d 3e f7 62 f1 3d 30 2d 26 3a 6a aa dd 3d
       0.15419015 0.11786454 0.0006339131 0.108235195
000040 20 09 37 bd 54 8d 9c bd 5f c1 de bd 96 af 05 be
       -0.044686437 -0.07644144 -0.10876726 -0.13055262
000050 2e 55 63 3d 04 fb ae bd 7d 7f 2f be 92 2e b4 bd
       0.055501156 -0.08543971 -0.17138477 -0.08797945
000060 90 e8 7f 3d e2 d9 79 3d 98 39 e1 bc 77 5e 90 3d
       0.06247765 0.060998805 -0.027493283 0.07049268
000070 86 48 cd bd 86 6c 1e be 98 3e aa 3d 43 96 39 3e
       -0.100235984 -0.15471086 0.0831272 0.18123727
000080 2c 56 05 be a9 c1 8b bd 78 ed 1b 3e 30 bc 1e 3d
       -0.13021153 -0.06824047 0.15227306 0.03875369
000090 6f bd d5 bd 49 fa 90 bd 08 ea 72 bc 3f ac a9 bd
       -0.10436522 -0.07078988 -0.014826305 -0.082848065
0000a0 70 47 bb 3d 93 87 c8 3d c5 f7 b9 3d c4 0a 37 3d
       0.09144485 0.09791484 0.090804614 0.044688
0000b0 c9 ca ae 3c 89 a9 29 bc 6f 20 2b 3e fa 25 ef 3c
       0.02133693 -0.010355362 0.16711591 0.029192913
0000c0 0c 58 a3 3d a6 ae 40 bd 54 ef c6 bd 9b a7 bd 3d
       0.07975778 -0.047041558 -0.09713617 0.09260484
0000d0 cc ea 04 3e 43 c7 8d bd 2b fa ad bd 7f 0a bc 3d
       0.12980193 -0.06922772 -0.084949814 0.091816895
0000e0 3f 8a fa 3d c4 57 ab bd 0f 74 d4 bd fc 46 0a bc
       0.122333996 -0.08366349 -0.10373699 -0.008439776
0000f0 e0 4a 71 ba 17 9c 99 3d 6d af 08 3e 29 8c 1d 3d
       -0.00092045777 0.07500475 0.1334817 0.038463745
000100 4d 68 bb 3d 01 2f 56 bd 8a a6 a5 bd 7b 49 da bd
       0.09150753 -0.05229092 -0.080884054 -0.106585465
000110 6a 8e 9d bd 6f 90 34 bd cd 0f 11 bd 7d 44 44 be
       -0.07693179 -0.044083055 -0.03541546 -0.19166751
000120 51 d6 e3 3c ee 2b 2f 3d ec a9 c3 bd 69 16 20 bd
       0.027812155 0.042766504 -0.095538944 -0.039083872
000130 74 a0 1c be 30 8d 69 ba 5f d7 e5 bc fd 98 3c 3d
       -0.15295583 -0.0008909283 -0.028056799 0.04604434
000140 4c a5 3c 3d a2 45 9e 3c dc 73 76 3c 57 f1 92 3d
       0.046056077 0.019320313 0.015042271 0.07174938
000150 35 70 23 be 0e a6 a3 bc 20 08 73 3b 8f 75 b2 3d
       -0.15960772 -0.019976642 0.00370837 0.08713829
000160 fe 53 0d 3e 91 a9 21 3d b8 36 f5 bd dc c8 c3 bd
       0.13801572 0.03946835 -0.119733274 -0.09559795
000170 8d e1 77 3c 37 f1 aa bd c9 90 3d bd b6 5e ff bb
       0.015129459 -0.08346789 -0.046280656 -0.007793273
000180 b4 e3 ee 3d 0e 00 8d 3d 83 6a 6f bd 8d 48 05 3c
       0.11664525 0.06884776 -0.058451187 0.008134973
000190 b0 7a f2 3a ce e3 65 bc 61 65 fa 3d 0c 74 99 3c
       0.0018499698 -0.014031364 0.12226368 0.018732093
0001a0 55 15 cf bd da 52 32 bc 38 3f 2d be fc 1c 59 3d
       -0.10111491 -0.010884011 -0.16918647 0.053006157
0001b0 50 1b 2a 3d c7 06 c9 bd 7e f8 8e bc ea 12 0d bd
       0.041529953 -0.09815746 -0.017452475 -0.034441866
0001c0 19 12 2a be b8 ff b7 bc c6 c1 12 3e 90 f2 82 bd
       -0.16608466 -0.022460803 0.14331731 -0.063939214
0001d0 d8 61 d4 3d 87 92 73 bc 18 b8 3c 3c 65 1e 61 3c
       0.10370225 -0.014866478 0.011518501 0.013740157
0001e0 92 cc 7d 3d 3c 2b ca 3d 59 c9 86 bd e0 f7 1f 3e
       0.06196267 0.098715276 -0.06581373 0.156219
0001f0 6e cd cd bd c0 7d 14 be fe fc f8 3b f8 ea 63 3b
       -0.10048948 -0.14501095 0.0075985184 0.0034777503

shared_bn1.running_var f4 [128]
000000 ed d4 dc 3e 0f 96 16 3f 10 63 03 3f b3 d5 24 3f
       0.431312 0.5882272 0.5132303 0.6438858
000010 d9 7a d5 3e 8a a1 90 3e f8 d8 3e 3f e7 b8 06 3f
       0.41695288 0.28248245 0.7454982 0.5262589
000020 ab b0 1a 3f 17 7d 80 3f ee 99 28 3f 1b a9 14 3f
       0.60425824 1.0038174 0.6585988 0.58070534
000030 7c 04 b8 3e c8 5a 9c 3e f4 b4 ba 3e b9 be 03 3f
       0.3594092 0.3053801 0.3646618 0.51462895
000040 f5 6d 06 3f 54 cb 2d 3f df 0e ac 3e 16 73 dd 3e
       0.5251153 0.6788838 0.33605096 0.43251866
000050 f2 79 d4 3e a5 25 8e 3f ab ed 89 3e 50 52 bb 3e
       0.41499287 1.1105238 0.2693914 0.36586237
000060 ad 92 73 3f ef 4c 20 3f c4 9e ad 3e c7 4d e6 3e
       0.95145684 0.6261739 0.3391019 0.44981214
000070 84 8c b3 3f 0e d7 26 3f 7e a0 13 3f 45 06 04 3f
       1.4027257 0.651719 0.57666767 0.51572067
000080 20 09 e6 3e d3 03 16 3f 1f 97 fa 3e b5 76 4e 3f
       0.44928837 0.58599585 0.4894342 0.8064988
000090 4b 8f 67 3f f2 8b 14 3f f1 6f 58 3f df ac 0d 3f
       0.9045302 0.5802604 0.8454581 0.55341905
0000a0 c6 5d c0 3e cb 20 70 3f 3a 57 e7 3e c1 c6 04 3f
       0.37571543 0.9380004 0.45183736 0.51865774
0000b0 8d 86 0e 3f da d4 11 3f 12 1f dc 3e 19 28 35 3f
       0.5567406 0.5696541 0.42992455 0.7076431
0000c0 74 0b b2 3e fe c9 0b 3f d4 62 b6 3e 7d 80 db 3e
       0.34774363 0.5460509 0.35622275 0.42871466
0000d0 f7 52 b6 3e 99 ef d8 3e 0d f0 e2 3e 3f 5d 35 3f
       0.35610172 0.42370299 0.4432377 0.7084541
0000e0 c9 e0 6d 3f 1d 46 be 3e 08 6c 7c 3f 58 a5 38 3f
       0.9292112 0.37162867 0.9860234 0.72127295
0000f0 29 b5 8e 3e 03 28 e0 3f 62 9c bf 3e 2b b6 b5 3e
       0.2787259 1.7512211 0.37423998 0.35490546
000100 31 59 9b 3e ba ab f7 3e 35 03 bb 3e c6 f6 d6 3e
       0.30341485 0.48373204 0.36525884 0.41985148
000110 18 72 90 3f b4 c0 eb 3e 1f fb 08 3f 30 de 69 3f
       1.1284819 0.46045458 0.5350818 0.91354656
000120 7e a4 00 3f d0 08 b8 3e f7 43 0f 3f 51 ef b9 3e
       0.50250995 0.35944223 0.5596308 0.36315396
000130 82 66 cf 3f ae 79 7b 3f 7e cd 0a 3f d5 b5 da 3f
       1.6203158 0.98232543 0.54219806 1.7086741
000140 da 55 de 3e 8d 56 f2 3e df 1b fb 3e 62 89 e9 3e
       0.43424875 0.47331658 0.490447 0.45612627
000150 40 9a 2c 3f 99 59 3f 3f e7 61 cd 3e 85 93 33 3f
       0.67422867 0.7474609 0.40113756 0.7014697
000160 05 77 0c 3f 38 57 80 3f f9 36 fb 3e fc f6 d7 3f
       0.5486911 1.0026617 0.49065378 1.6872249
000170 56 64 c4 3e 9b 93 bd 3e 41 ac c1 3e eb 86 c9 3e
       0.383578 0.37026677 0.37826732 0.39360747
000180 e1 60 fe 3e 3f 73 c9 3e 09 0e 2a 3f 0f c0 0b 3f
       0.49683288 0.39345738 0.66427666 0.54589933
000190 6b 0a d0 3e 54 ef fc 3e ad 2f 91 3e e1 3e 59 3f
       0.40632948 0.49401343 0.28356686 0.8486157
0001a0 45 79 22 3f ef 4c 25 3f 91 57 ce 3f 71 6d ce 3e
       0.6346629 0.64570516 1.6120473 0.40317872
0001b0 f0 5c 1f 3f 5c b7 32 3f bd b5 4e 3f 32 44 db 3e
       0.62251186 0.69811034 0.8074606 0.42825466
0001c0 01 65 04 3f 40 f4 a5 3e 1e 64 59 3f 9d a4 06 3f
       0.5171662 0.3241291 0.8491839 0.5259493
0001d0 54 a5 88 3f 68 4f 1b 3f f6 96 01 3f 23 b3 d4 3e
       1.0675454 0.6066804 0.50620973 0.4154292
0001e0 10 d9 28 3f 2b 0f f3 3e 2f 92 38 3f 1a 13 fc 3e
       0.6595621 0.4747251 0.7209806 0.49233323
0001f0 ca e2 05 3f 64 4f f2 3e 84 77 64 3e f0 f4 e5 3e
       0.5229918 0.47326195 0.22311217 0.44913435

shared_fc2.weight f4 [64, 128]
000000 21 73 b1 bd 68 dd 22 bd bd f6 c5 3c 44 ab b3 3d
       -0.08664537 -0.03976193 0.024165506 0.08772901
000010 19 94 5b bd 1a d4 88 bd 0b e5 b8 bc 6e 0a ff 3c
       -0.053608034 -0.0668108 -0.022570154 0.031132903
000020 63 21 94 3d 07 d9 7d bc cb ca 80 3e b1 5d 01 be
       0.072329305 -0.015493638 0.2515472 -0.12633397
000030 79 72 f1 bd 82 29 8f 3c fc 31 c0 3d 65 56 98 bc
       -0.11789412 0.017475847 0.09384534 -0.018595884
000040 6d 18 e2 3d d3 3b 01 3e 37 eb 96 bd 1b ef ed bc
       0.11039815 0.12620477 -0.073690824 -0.029044678
000050 25 f3 ad 3d 26 45 6d bd f1 cb 02 bd aa 60 93 bb
       0.08493642 -0.057927273 -0.031932775 -0.0044976072
000060 19 8f 3a be db b4 1d 3e bb 47 0c be 7a 03 06 3d
       -0.1821865 0.15401022 -0.13699238 0.03271816
000070 d9 ba 0a 3d 45 35 43 bc 27 40 3a be a4 54 e1 bc
       0.033869598 -0.011914556 -0.18188535 -0.02750618
000080 be e5 71 3d c6 06 b7 3b f5 bf 49 bd 56 8d 49 be
       0.05905699 0.0055855243 -0.04925533 -0.19682822
000090 08 3c 80 bd a7 8f 63 bd cd e9 b2 bb 27 67 a2 3d
       -0.0626145 -0.05555692 -0.00546 0.07929831
0000a0 58 7b c6 bc da 85 15 bd 2d 78 d9 3d 58 36 9d 3b
       -0.024228737 -0.036504604 0.10618625 0.004797738
0000b0 9b 64 41 3d f2 13 8f bc 5a a8 7f bd 7d ef a6 3d
       0.047215085 -0.017465565 -0.062416412 0.081511475
0000c0 cb cd 79 bd d2 0f c4 3d 26 29 ef bd 36 17 3d 3d
       -0.060987275 0.0957333 -0.1167777 0.046164714
0000d0 f7 9c 65 3d 59 1a bc 3d 2b a7 92 3d b9 91 51 bd
       0.056057896 0.09184713 0.07160791 -0.051164363
0000e0 8f cd 22 bd ad f2 35 3d b3 3c 4a 3c be f2 3d 3b
       -0.039746817 0.044420887 0.012343573 0.0028983797
0000f0 08 ca 8d 3c 5e 1d 7d bd 70 f4 ff 3d b8 3d f6 bd
       0.01730825 -0.061795585 0.12497795 -0.12023491
000100 e9 29 99 bd 5f c5 9a 3d 7f 96 7a bd 2e 1a d0 bd
       -0.07478697 0.07557177 -0.06117868 -0.101612434
000110 b6 9d b3 3d 62 16 b7 3c c1 e0 4a 3d 6f 7b 75 bd
       0.08770315 0.02234954 0.04953075 -0.05993217
000120 88 46 07 3e c3 44 21 bd 90 93 2a 3e a1 0b 0a bd
       0.132105 -0.039372217 0.16657853 -0.033702496
000130 e3 dc 71 bd 8b df ea bd b9 21 bc bd 54 cc f1 bd
       -0.059048545 -0.11468419 -0.091861196 -0.118065506
000140 80 f9 be bb 31 47 93 bd a0 12 e7 bd 4f ba 98 bd
       -0.0058280826 -0.07191313 -0.11282849 -0.074574105
000150 c4 c7 6f 3d 6f 80 99 bd af 51 66 3d 18 47 42 bc
       0.05854012 -0.074952 0.056230243 -0.01185777
000160 38 96 2a 3d 29 3c bb 3d 4d ea 37 3d aa 38 20 bc
       0.041647166 0.09142334 0.04490118 -0.009779135
000170 bf 10 7f bd b2 f2 95 bd 10 28 92 3d 5f 9b ba bc
       -0.06227183 -0.07321681 0.071365476 -0.022779165
000180 cd ce f8 3c 9d 9a 91 bd 6c fa 1c bd d4 5c 2a bd
       0.030372048 -0.07109568 -0.03832476 -0.041592434
000190 86 11 1c 3d 08 ba 5f 3d 84 3e 9c 3c 59 ae 13 bd
       0.03810265 0.054620773 0.019072779 -0.036054943
0001a0 89 8a ae bd 46 40 de b9 1e 91 3b bd ec 08 8c 3d
       -0.08522517 -0.00042391027 -0.04579269 0.06837639
0001b0 f9 ff 08 be 52 68 ae 3c c3 b7 a2 bd 06 d8 25 ba
       -0.13378896 0.021289978 -0.07945206 -0.00063264405
0001c0 08 e5 23 be e3 ae f2 3d 52 50 86 bb 72 91 cc bd
       -0.16005337 0.11849763 -0.0040989304 -0.09988679
0001d0 41 7f 9d 3d 88 60 3a 3c 6d 88 2c be bd 9b 23 bd
       0.076902874 0.011375554 -0.16848917 -0.039943445
0001e0 c4 0d e9 3d 85 b9 d9 bc 1e 9e 43 3d 75 af 56 3d
       0.11379579 -0.02657772 0.047758214 0.052413423
0001f0 e9 34 37 bd ae bc 1b 3e 8f 34 1b 3d eb df 8e bb
       -0.044728193 0.15208694 0.03789192 -0.004360189
000200 90 04 94 bd fc d3 59 3d 52 7b bb bd 8e 04 62 bd
       -0.07227433 0.05318068 -0.09154381 -0.055180125
000210 d5 1e 77 3c b3 ee 41 bc 89 a1 10 bd 1a d0 8f bd
       0.0150830345 -0.0118366955 -0.035310302 -0.07022114
000220 fd 70 38 bd 80 88 f5 3d 71 58 b2 bc 11 6c 1d be
       -0.04502963 0.11988926 -0.021770688 -0.15373255
000230 eb 55 f0 bd b7 be 63 bd 42 bb 62 3d a1 e3 bc bb
       -0.117351376 -0.0556018 0.055354364 -0.00576444
000240 c9 8a 5a bd 65 f2 a9 3d 88 90 19 3d 9c 84 58 bc
       -0.053355012 0.08298186 0.03749135 -0.01321521
000250 78 e9 63 bd 62 92 2c 3e 73 98 1b be 2b 0e 11 3d
       -0.055642575 0.16852716 -0.15194874 0.035413902
000260 c7 d0 46 3b 5c 45 0f 3c 79 84 fe bd e4 51 6c 3d
       0.0030336843 0.008744564 -0.12427611 0.057695284
000270 1b 24 3b 3d 7c ff 62 3d 5f 01 a3 3d a1 3b 27 3d
       0.04568873 0.05541943 0.07959246 0.04082835
000280 e7 65 a4 bd 9b ac 62 bd 6d fb ef bd 3d 97 67 3d
       -0.08027249 -0.05534039 -0.117178775 0.056540716
000290 a3 57 1a 3d 97 01 81 3d a3 0c 0b 3d 02 d9 11 bc
       0.037681233 0.06299131 0.0339476 -0.008901836
0002a0 0a 27 09 be 41 14 c1 3d f8 ec 80 bd 6e a9 7c 3a
       -0.13393798 0.09427691 -0.06295198 0.0009638284
0002b0 1d 7b 3c bd d3 3d 16 be 89 ae ad bc db bf d9 3d
       -0.046015847 -0.14672022 -0.021201389 0.10632297
0002c0 bf 05 44 bd 6e db 14 3d bb 31 16 bc 7f 21 a4 bd
       -0.047857042 0.036342077 -0.00916713 -0.080142014
0002d0 e3 de 56 3d 6f da 0f bd bc 74 3a 3d 3f f3 3d 3d
       0.052458655 -0.035120424 0.045521483 0.046374556
0002e0 86 0e b3 3c 2c e5 2d 3d 69 8c e0 3d 63 0a 36 3d
       0.021857511 0.042454883 0.10964281 0.0444435
0002f0 b8 87 ad bd 68 2d 34 3e 3d 8e a0 bc 85 4a 2c bd
       -0.08473152 0.17595446 -0.019599074 -0.042063255
000300 22 71 a2 bd a8 98 e7 3c 86 41 01 bd d2 5c a3 3d
       -0.079317346 0.028271034 -0.03155663 0.079766884
000310 47 d4 4c 3b 93 4a 91 bd 1b 56 22 bd 6b d7 07 3d
       0.0031254457 -0.07094302 -0.039632898 0.033164423
000320 61 b6 b9 bd f1 c8 ae 3c c2 db 9c 3b e9 7c 92 bd
       -0.09067989 0.02133605 0.0047869394 -0.07152731
000330 14 17 97 3d 89 5b 53 3d dd 3a 44 3c 02 ce b3 3d
       0.07377449 0.051600967 0.011976925 0.08779527
000340 cb 3c b0 3b 0e 7d c6 bc ee 87 98 3c 0d 2c 02 bd
       0.005378341 -0.024229553 0.018619504 -0.03178029
000350 d0 8b 81 3d c7 3e 60 bd e1 7b a0 3d 8a ba 46 bc
       0.06325495 -0.05474737 0.07836128 -0.012129435
000360 70 4e bd 3d 86 1d df 3d f6 c7 92 bd 4d 39 1f 3d
       0.092434764 0.10894303 -0.07167046 0.038873006
000370 2b 5e 55 3d 60 6f df bd 8c 98 d8 bd 64 ca da 3c
       0.05209176 -0.10909915 -0.10575971 0.026707835
000380 e4 ba 05 3d 08 34 ff 3b f9 63 dc 3d 12 e2 8e 3c
       0.032648936 0.007788185 0.10761256 0.017441783
000390 44 d0 80 3c 99 68 0e bd 56 c3 e1 bd 69 6a 90 bc
       0.015724309 -0.03476772 -0.110235855 -0.017628865
0003a0 0a 8d dc 3b b5 a1 9b 3d 27 87 ad 3d ba 65 cf bd
       0.0067306804 0.075992025 0.08473044 -0.10126825
0003b0 89 47 7e 3d 06 96 30 3d 70 1a 77 bd d6 b2 8b bd
       0.06207994 0.043111823 -0.060327947 -0.068212196
0003c0 b8 64 08 3d 83 c9 92 bd 5f 71 dd bd b8 d8 be bc
       0.033299178 -0.071673416 -0.108126394 -0.023296699
0003d0 91 47 c0 3c 97 b4 b1 3d 4d 81 07 3d 85 45 90 3c
       0.023471626 0.08677023 0.033082295 0.017611274
0003e0 ec 42 15 bc d6 e9 92 ba 1f 31 a7 3c 30 eb e0 3d
       -0.009110194 -0.0011208605 0.020409165 0.109823585
0003f0 e3 fa 0e 3e ab b5 27 3d 63 70 0c be 1a 04 cf bd
       0.13962893 0.040944736 -0.13714747 -0.10108204

shared_fc2.bias f4 [64]
000000 31 e7 69 3d cf 43 90 3d 1c aa 60 bd ef 9d af bd
       0.057105247 0.070441835 -0.05484973 -0.08575045
000010 eb 8f 4c bd c6 e2 a5 3d 34 6f 9b bd 39 96 c2 3b
       -0.04994194 0.08099894 -0.0758957 0.005938318
000020 dc d9 05 3d 88 34 a1 3d 6a ab dc 3b 01 4d 54 3c
       0.03267847 0.07871348 0.0067343013 0.012957812
000030 1e dc 61 ba fd 5c 97 bd e6 f1 da 3c c9 a4 69 3d
       -0.0008615869 -0.07390783 0.026726674 0.057041917
000040 39 b2 90 3d 6e 23 b7 3d 8d 48 c5 bc f1 70 07 bd
       0.07065243 0.089423046 -0.024082446 -0.033066694
000050 e4 2d a3 3d 2d de 72 bd 96 a1 23 3d f6 86 25 bd
       0.07967737 -0.059293915 0.039949022 -0.040411912
000060 83 ee e8 bc 66 70 07 bc 9c 00 45 3d 19 aa 4b bd
       -0.028434044 -0.008266544 0.048096284 -0.049722765
000070 dd 3f 25 3d 12 d1 ab bd bc fd 04 bd 5c b8 93 3c
       0.040344108 -0.08389486 -0.032468542 0.018032245
000080 75 c7 91 bd 31 bf b4 3d 75 c8 a4 bd d4 c9 9a 3d
       -0.071181215 0.08825529 -0.08046047 0.07558027
000090 02 d2 3e 3d 32 2f 3a bd b6 56 5c bd 1a a3 03 bd
       0.046586998 -0.045455165 -0.05379363 -0.032137968
0000a0 84 90 ab bd 9d db 37 3c 11 1c 94 3d 02 81 2e bd
       -0.083771735 0.0112217935 0.07231916 -0.0426035
0000b0 a8 19 a3 3d 9b 70 05 bd 68 3c 64 bd f4 2d ac 3d
       0.07963878 -0.032578092 -0.05572167 0.08407202
0000c0 38 e3 be 3c be d4 a3 bd b4 74 4b bd a8 02 b9 3c
       0.023301706 -0.07999562 -0.049671844 0.022584274
0000d0 34 28 95 3d a5 ea 8f bd 42 d4 90 bd 9c e8 f3 3c
       0.07283059 -0.07027177 -0.07071735 0.029774003
0000e0 af 9c 6e 3d f2 03 ce 3c eb fa 2d bd d6 00 53 bc
       0.058254894 0.025148366 -0.042475622 -0.012878617
0000f0 81 f5 b4 3c ad ad 20 bb 46 38 f5 3b 3a 67 9f bd
       0.022089722 -0.0024517581 0.007483515 -0.07783361

shared_bn2.weight f4 [64]
000000 b1 a6 76 3f 04 eb 84 3f fb 9c 81 3f 8e f8 83 3f
       0.963481 1.0384221 1.0126032 1.0310228
000010 dc 47 88 3f a5 13 85 3f 58 8d 86 3f b6 fb 86 3f
       1.064693 1.039662 1.0511885 1.0545566
000020 73 9d 7e 3f 5d f1 84 3f f9 14 88 3f a0 8a 86 3f
       0.99459 1.0386158 1.06314 1.0511055
000030 c7 5e 87 3f 74 c7 80 3f 79 a2 85 3f 5d 2c 7c 3f
       1.0575799 1.0060868 1.0440208 0.98505193
000040 96 1c 79 3f 59 18 7f 3f c3 0f 82 3f 8f 3e 84 3f
       0.97309244 0.99646527 1.016106 1.0331591
000050 1c f0 80 3f 92 78 82 3f 62 4c 80 3f 7f 60 8e 3f
       1.0073276 1.0193045 1.002331 1.1123198
000060 34 36 81 3f 34 a5 88 3f d7 2e 83 3f f7 a5 87 3f
       1.0094666 1.0675416 1.0248669 1.0597523
000070 da 1b 86 3f 33 9c 84 3f 3e 8b 83 3f 7c 02 87 3f
       1.047725 1.0360168 1.0276868 1.0547633
000080 c2 f5 7f 3f e2 d2 83 3f f3 c3 83 3f 34 ad 83 3f
       0.9998437 1.0298731 1.0294174 1.0287232
000090 d7 45 86 3f 7c 79 88 3f 69 58 85 3f 50 50 88 3f
       1.0490063 1.0662074 1.0417606 1.064951
0000a0 64 99 76 3f c7 06 83 3f cd 3f 82 3f 25 aa 85 3f
       0.96327806 1.0236443 1.017572 1.0442549
0000b0 07 2c 7d 3f 06 9a 83 3f f2 b0 7f 3f 0c 0f 82 3f
       0.98895305 1.0281379 0.9987937 1.0160842
0000c0 bc dd 84 3f 47 ab 7d 3f 8a 7f 81 3f ef d0 88 3f
       1.0380168 0.99089473 1.0117047 1.0688761
0000d0 ef fd 90 3f 0f 32 83 3f 83 50 83 3f 5b 0f 77 3f
       1.1327494 1.0249652 1.0258945 0.96507806
0000e0 41 5e 83 3f 71 bf 83 3f 39 42 81 3f e1 0a 87 3f
       1.0263139 1.0292798 1.0098335 1.0550195
0000f0 77 87 8c 3f 0e 8f 81 3f b8 9b 8c 3f 7a a7 83 3f
       1.097884 1.0121782 1.0985022 1.0285485

shared_bn2.bias f4 [64]
000000 b1 9e aa bd 00 87 72 3c 05 78 14 bb 33 59 35 bc
       -0.08331049 0.014802694 -0.0022654545 -0.01106863
000010 a3 33 67 3d fe e7 0c bd 89 67 73 bb 02 d9 ba 3c
       0.05644573 -0.034400932 -0.003714057 0.022808556
000020 3e d1 a4 3c 6a 22 70 bd 3d 84 83 bc 1f 81 d4 3c
       0.020119306 -0.05862657 -0.016054267 0.025940476
000030 79 17 f1 3c 03 bf 07 be 40 16 d4 3d 15 d4 6a 3d
       0.029430138 -0.13256459 0.10355806 0.057331163
000040 b8 0a 08 bd 85 ed 1c 3d 58 6a b6 bb 73 8b 9c 3c
       -0.033213347 0.038312454 -0.0055668764 0.019109463
000050 a0 7e 07 bc f7 34 e6 3d 69 ca 55 3d 83 e4 a6 3c
       -0.008269936 0.11240571 0.052194986 0.020372635
000060 86 ab 2e ba 6d cd e6 3c c6 f1 31 3c 75 aa 92 3c
       -0.0006663132 0.028174127 0.010860866 0.017903546
000070 9e bf 20 ba 88 69 17 bd 3b f1 7d 3d e1 20 61 3d
       -0.0006132069 -0.036965877 0.061997633 0.054962996
000080 08 15 bb bc 52 00 6e 3c b3 d4 01 bc ba 15 c0 3c
       -0.022837177 0.014526444 -0.007924247 0.02344786
000090 31 35 df 3c d3 38 6e 3d 76 15 06 3c 10 4c 53 3d
       0.027247043 0.05815966 0.008183828 0.05158621
0000a0 03 b7 b8 bd 1c f1 47 3d 83 66 7c bd 26 71 2b 3d
       -0.09019282 0.048813924 -0.0616212 0.041855954
0000b0 a4 d7 96 bd a9 7b 96 bd 45 d3 3a bd 10 e9 18 3c
       -0.07365349 -0.07347805 -0.04561164 0.00933291
0000c0 1b ab ed bc e0 ca a3 bc 84 9b 81 bc bb 78 60 3c
       -0.029012254 -0.0199942 -0.015821226 0.013700659
0000d0 bd 06 c2 3d 8c c9 da bd 42 d2 5a 3a 3d 51 80 3b
       0.094739415 -0.10682973 0.0008347371 0.0039159344
0000e0 3e e2 b7 3a 33 65 a1 3b f4 db 5e 3d eb bb ea bb
       0.0014029217 0.004925394 0.054408982 -0.007163515
0000f0 38 e5 a2 3d 90 cd 34 bc e8 11 92 3d 27 44 fd bd
       0.07953876 -0.011035338 0.071323216 -0.12366515

shared_bn2.running_mean f4 [64]
000000 85 3a 3d be 6a 45 d7 3b 8e 40 ee be bc 15 80 be
       -0.18479355 0.006569554 -0.46533626 -0.25016582
000010 bc ee ef be bd 2e 84 3e af 47 89 bd d0 8a c9 be
       -0.46861827 0.25816908 -0.06703126 -0.39363718
000020 01 0f 22 bf 19 05 66 3e 05 cc db 3e f6 3d 90 be
       -0.63304144 0.22462882 0.42929092 -0.28172272
000030 3a 48 f0 3d 85 2c b6 3d 37 c3 86 bf e2 cc 4b be
       0.11732526 0.0889521 -1.0528325 -0.19902375
000040 a3 2c b2 be f3 b6 14 be 14 22 af be ba 2a 25 be
       -0.3479968 -0.14522915 -0.34205687 -0.1612958
000050 fc 84 12 bf 5d 15 ad be b7 0b 98 3e e3 d2 69 3f
       -0.5723417 -0.3380536 0.29696438 0.9133741
000060 02 3e 39 bf db 50 43 3e 2a e0 fb bc 55 da c4 3e
       -0.7236024 0.19073813 -0.030746538 0.38447824
000070 cf 61 9a 3e c3 8a 68 bf 21 e0 6a bf 42 80 79 be
       0.30152747 -0.90836734 -0.91748244 -0.24365333
000080 36 d1 e3 be cb 88 05 bf 30 91 ea be 7b a7 96 be
       -0.44495553 -0.52161855 -0.45813894 -0.29424652
000090 9a 9c a5 be bb 4b 83 3e a9 a3 45 be 4a ca 0e 3e
       -0.3234604 0.25643715 -0.19300713 0.13944355
0000a0 a4 f9 70 be 65 b2 cf be 80 14 2a be 3a d5 01 bf
       -0.2353273 -0.40565792 -0.16609383 -0.5071598
0000b0 a6 68 e2 be 0a 34 90 bc b5 38 0f be d2 b2 b3 bd
       -0.44220465 -0.01760294 -0.13986476 -0.08774342
0000c0 9a 4d 49 bd fc 2f 06 be cb 25 5e be 7f 35 cf 3e
       -0.049146272 -0.13104242 -0.21694104 0.40470502
0000d0 c6 70 8c 3e cc 70 b5 bc 0e ca b9 be 50 bc 33 be
       0.2742979 -0.022148512 -0.36286968 -0.17552304
0000e0 35 c5 8b be 69 f2 ea bd d8 3c f8 be 96 bf 1f 3f
       -0.27298895 -0.11472017 -0.4848392 0.6240171
0000f0 f1 13 9d bf 6d 91 19 be 9e 40 7d 3d 48 7d cd 3e
       -1.2271711 -0.14996882 0.061829202 0.40134645

shared_bn2.running_var f4 [64]
000000 70 5c 50 3f 87 a6 51 3f 44 f3 4c 3f 3e 03 03 3f
       0.8139105 0.81894726 0.80058694 0.5117682
000010 c5 c2 6f 3f e6 69 47 3f 3e 2f 00 3f 78 bc 87 3f
       0.9365657 0.77895963 0.50072086 1.0604391
000020 af c3 93 3f cf c7 dc 3e de e2 60 3f 69 af 1e 3f
       1.1544093 0.43121192 0.8784617 0.61986405
000030 91 d2 86 3f 01 7f e6 3e 72 44 9d 3f f8 b5 a0 3f
       1.053301 0.4501877 1.2286513 1.2555532
000040 ff 61 d9 3e e6 c2 41 3f 54 23 5d 3f dd 07 86 3f
       0.42457578 0.75688016 0.8638203 1.047115
000050 d2 14 11 3f 27 5f 81 3f f4 a5 15 3f 3d 17 27 3f
       0.56672394 1.0107163 0.5845635 0.65269834
000060 ad c5 63 3f c4 c5 d8 3e 0a ef a9 3f 99 4b 26 3f
       0.88973504 0.42338383 1.3276074 0.649591
000070 7f 1b 31 3f 1a e1 fb 3e 8e 70 6d 3f 0b f3 39 3f
       0.6918258 0.49195176 0.9274987 0.7263648
000080 54 28 88 3f 7a 15 58 3f 4d 65 42 3f 79 78 92 3f
       1.0637307 0.8440777 0.7593582 1.1443015
000090 74 67 dc 3e d6 38 ff 3e bc 75 9e 3f 3b 03 a6 3f
       0.43047678 0.4984805 1.237968 1.2969736
0000a0 8e d8 17 3f 30 58 2d 3f 53 02 7b 3f 77 4b 91 3f
       0.5931481 0.6771269 0.9805042 1.1351155
0000b0 31 a9 06 3f 73 64 57 3f 1d 11 4a 3f 3d ed 27 3f
       0.52601916 0.8413765 0.7893236 0.6559637
0000c0 8a 13 eb 3e 79 ac 98 3f 60 5a 2a 3f 2c a3 10 3f
       0.45913345 1.1927634 0.6654415 0.5649898
0000d0 16 38 2b 3f 2e 46 2b 3f 07 71 9a 3f 85 15 a0 3f
       0.66882455 0.6690396 1.2065743 1.2506567
0000e0 39 b6 1a 3f c6 c0 4a 3f 13 0a 7f 3f 61 e9 15 3f
       0.604343 0.792004 0.9962475 0.5855923
0000f0 49 da bb 3e 33 0f 7e 3f 3b d3 54 3f 61 8b 19 3f
       0.36689976 0.9924194 0.8313481 0.599783

task1_fc.weight f4 [32, 64]
000000 8c aa eb bb 8d aa 15 be bb be 25 bd 15 eb 43 bc
       -0.0071919616 -0.14615841 -0.040465098 -0.011957903
000010 31 28 98 bd 3b d6 68 bb 11 4f dc bc 1e 28 9b 3d
       -0.07429541 -0.0035528082 -0.02689317 0.07576011
000020 f7 ce 23 be c5 a2 91 3c 25 63 28 be 42 f4 e6 bb
       -0.1599692 0.01777781 -0.1644407 -0.007048161
000030 84 c7 e1 3c c0 5a f9 3c 09 29 5d be 1b 18 19 3d
       0.027560957 0.03043878 -0.21597685 0.037376504
000040 50 b7 82 3d 5d cc 81 bd d6 50 e9 bd 2c 6f 4d bd
       0.0638262 -0.06337807 -0.11392371 -0.05015485
000050 d9 14 6e 3c 08 49 a0 3c 23 5b 80 be cf 56 6c be
       0.014531338 0.019566074 -0.25069532 -0.2307999
000060 f8 2c 3e be 93 cf 71 3d d5 86 e7 bd 10 a4 80 3d
       -0.18571842 0.05903585 -0.11305014 0.062812924
000070 78 4f a9 bd 6b 31 55 3e 58 9e 12 be 98 b0 75 3d
       -0.082671106 0.20819633 -0.14318216 0.059982866
000080 fd eb ba 3c 87 30 f8 3d c7 10 67 bd 8e 3a 84 3c
       0.022817606 0.12118631 -0.056412484 0.016141202
000090 17 8b 7b 3e e7 1a 20 3d 88 66 1b 3d 61 23 74 3c
       0.24564777 0.039088156 0.03793958 0.014901013
0000a0 60 1f 21 3d 58 6a cb 3d f6 ae 41 3e 9a a3 18 be
       0.039336562 0.09932393 0.18914399 -0.14906159
0000b0 e8 79 98 3a 50 74 fc 3d d2 ba a0 bc 3f 0c 93 3d
       0.001163301 0.12326872 -0.019620333 0.0718007
0000c0 e5 ac 66 3d 48 a6 95 bb 45 33 57 3d ae 67 db bd
       0.05631723 -0.0045669414 0.05253913 -0.10713135
0000d0 e3 77 9e 3d 9b 34 b6 b9 a2 f8 69 3d c6 f8 bc 3d
       0.0773771 -0.0003475294 0.05712188 0.09227137
0000e0 42 06 1a 3e d3 46 f0 bc 04 26 9e bd 6a a5 8e bc
       0.1504145 -0.029330647 -0.07722095 -0.01741286
0000f0 49 87 f6 3c 7a 47 a6 3d 32 89 19 be 61 3c 1a be
       0.030093806 0.08119102 -0.14993742 -0.15062095
000100 60 fa 3b bc f8 f2 5e bd 15 28 bf bd e2 bd a3 3b
       -0.011473268 -0.05443093 -0.09333817 0.004997001
000110 b1 e0 e9 bd 04 33 f6 bd 5c 8d 99 bd a3 1d 17 3d
       -0.114198096 -0.12021449 -0.07497665 0.0368935
000120 20 ba 69 3b e5 52 7c 3d cb 86 0b 3e 1a 9a c0 3d
       0.0035663918 0.061602492 0.13625638 0.094043925
000130 57 b8 58 3d e2 4c 5d bc 46 69 70 bd 94 dc 3a 3d
       0.052910175 -0.0135071 -0.058694147 0.045620516
000140 c1 26 3f bd cc 35 04 be 0a e9 90 3b 38 57 88 3c
       -0.046667818 -0.12911147 0.0044223117 0.016643152
000150 75 d7 34 3e fd 33 d2 bd 2f b0 cc bd b4 9b ff 3d
       0.17660315 -0.10263822 -0.09994542 0.1248087
000160 e3 b2 b0 3d a7 1d 56 bd a9 31 40 3d 5c 6c dd bd
       0.0862787 -0.052274372 0.04692236 -0.108116835
000170 0d 5c 95 bc 6c 3d 9f bd c6 a8 d8 3c 00 f0 47 be
       -0.01823237 -0.07775387 0.026447665 -0.19525146
000180 6c e9 8e 3d 6f 19 0e be 83 51 d4 3b 08 75 2a bc
       0.069781154 -0.1387689 0.0064794435 -0.010403879
000190 8f 0f c6 bd a0 aa 60 be 5f 5e a9 3d 7e a0 32 bd
       -0.09670936 -0.21940088 0.08269953 -0.04361009
0001a0 f8 89 93 bc 0c fd 1f 3e dc 04 d5 3d a7 21 af bd
       -0.018010125 0.15623873 0.104013175 -0.085513406
0001b0 c6 1e 09 bd 2d 47 1b be c3 20 c8 bd 6a e0 1f bd
       -0.033476613 -0.1516387 -0.09771874 -0.039032377
0001c0 4e 9c 28 3e 9c 6a da bd 9d 19 bf bd d7 e2 6d be
       0.16465876 -0.106648654 -0.09331057 -0.23231064
0001d0 74 42 ec bd 01 17 21 bd 53 09 b5 bc b6 5d 9c bd
       -0.115361124 -0.03932858 -0.022099173 -0.076350614
0001e0 e9 34 82 bd d7 0c 2b 3e 2e 35 b6 bd c3 0d d1 bc
       -0.06357748 0.16704117 -0.08896862 -0.025519257
0001f0 ce ed d8 3d d7 63 a5 bd c5 41 25 3e 1e b5 3f 3e
       0.10592233 -0.080756836 0.1613837 0.18721434
000200 b0 fb 90 38 40 e8 e0 bd 6e 51 ed bd 99 e2 fa 3c
       6.9133355e-05 -0.10981798 -0.11587797 0.030625628
000210 c2 62 47 bb 8c 5b 1a bd 48 5b 84 bc a1 96 19 3e
       -0.0030423854 -0.037684962 -0.016156808 0.14998867
000220 37 8c c8 3d f6 05 00 be 0e 30 39 bb 69 9b a6 3c
       0.09792369 -0.12502274 -0.0028257403 0.020337777
000230 5c fa 4b 3e a6 71 d6 bd c5 c0 c6 3c 7b 8c 7f 3d
       0.19919723 -0.104708955 0.024261842 0.062389832
000240 2a a6 3e 3d 9b 49 e9 3d e3 20 68 3d 17 2e 05 3e
       0.046545185 0.11390992 0.05667199 0.13005863
000250 d2 9a 21 3e 6a ce b6 3d 0e 6f b2 3d a3 9a b3 3d
       0.15781716 0.08926089 0.08712588 0.08769729
000260 ba b2 61 bd 3e b8 eb bd 3f 53 19 3c 22 20 38 be
       -0.055102088 -0.11509751 0.009358226 -0.17981008
000270 dc 86 23 3e 72 0f 81 bd 07 c6 8a 3d 10 7d 02 be
       0.15969414 -0.06301774 0.06776052 -0.1274302
000280 0a 22 89 3d 87 6a 85 3b 64 90 8f 3d ec 25 47 3e
       0.066959456 0.004071537 0.07009962 0.1944806
000290 e9 3a 52 bd fd 3c 08 be 49 1e 95 3d 16 4b 22 3e
       -0.051325712 -0.13304515 0.07281167 0.15848956
0002a0 d9 7b 52 3e d8 09 40 bc 70 57 10 be 07 07 8f bd
       0.20555057 -0.011721097 -0.14095855 -0.06983762
0002b0 81 d2 53 3d 05 9c 0c be 9c da bf 3c a4 1b c0 3d
       0.051714424 -0.13731392 0.02341967 0.09380272
0002c0 0a 3c 3c 3e 42 62 b8 bd 1a b9 a2 3d e1 c3 eb bc
       0.18382278 -0.09003116 0.079454616 -0.028779926
0002d0 4b db 2a bd 39 4c c2 bd cc 41 fe 3d d4 ea 90 3d
       -0.04171304 -0.094871946 0.124148935 0.0707604
0002e0 ba 02 b9 bd a8 a2 31 3e e6 7e d5 3c 5b 46 13 be
       -0.09033723 0.17347205 0.026061486 -0.14382307
0002f0 29 cd c5 3c f5 40 4f bd 19 8a 2f 3e f1 d5 d1 3d
       0.02414568 -0.050599057 0.17142524 0.10245884
000300 fb 7b 91 bd 60 44 c9 bb b3 f1 04 3e 8c dc b0 3d
       -0.071037255 -0.006142184 0.12982826 0.08635816
000310 36 8b 2c be b4 61 57 3e f4 49 55 be e2 e3 65 bb
       -0.1684998 0.21033365 -0.20828992 -0.0035078456
000320 10 0a 08 bd 4a 87 f9 3d 2a bc 97 bd 1d e8 a4 bb
       -0.03321272 0.121840075 -0.07408936 -0.005032553
000330 5a 78 10 3d 32 33 62 3e 9a 6d 11 be 24 35 ea bd
       0.035271026 0.22089842 -0.14201966 -0.11435917
000340 12 c3 bd bd 37 cf 0b 3e cc b7 01 3c ec 6f fc bc
       -0.09265722 0.13653265 0.007917356 -0.030815087
000350 15 20 0c be 38 f8 e1 bd e9 91 50 be 81 f4 64 3d
       -0.13684113 -0.11033672 -0.2036816 0.05589724
000360 2c 6f 61 be 35 1b 05 3d 68 85 56 bd 28 d8 ea 3c
       -0.22015065 0.03249665 -0.05237332 0.028667524
000370 b9 1a e6 bd d6 ae c8 3c e0 91 4d bd 60 e5 ca 3b
       -0.11235566 0.02449743 -0.050187945 0.0061918944
000380 9e 92 ed 3d 30 ba 1a 3e 26 01 99 ba 2d 0a 3d be
       0.11600231 0.15110087 -0.0011673316 -0.18460913
000390 e6 5d 5b 3e 82 75 ef 3d 05 55 c1 3d 55 df 98 bd
       0.21422538 0.11692335 0.09440044 -0.07464472
0003a0 92 5b df bd 09 44 41 bd 61 db c3 bd 7e 82 a5 3b
       -0.109061375 -0.047184024 -0.095633276 0.0050509563
0003b0 30 cd b9 bd b9 9e d9 3d 4b e8 f1 3a b0 8d 76 3d
       -0.090723395 0.10625977 0.001845607 0.060193717
0003c0 84 63 d2 3c 1f 38 25 3e 6c 66 c5 3c 4a a4 d8 bd
       0.025682218 0.1613469 0.02409669 -0.10578211
0003d0 ac cf dd 3d 20 0f e2 b9 d9 e6 95 3d a0 88 b4 3d
       0.10830626 -0.00043117348 0.07319421 0.08815122
0003e0 80 bf 35 3e a1 f0 b6 bd a6 5b 7c bd 99 e7 a7 3d
       0.17748833 -0.08932615 -0.06161084 0.081984706
0003f0 34 f9 99 bd c8 a7 c1 bd 54 b8 c8 bd d6 3f 39 bd
       -0.07518235 -0.0945583 -0.09800783 -0.045226894

task1_fc.bias f4 [32]
000000 eb aa c0 3d ca d3 ea 3d 56 ae 6a 3b db 10 bc bc
       0.094076 0.11466177 0.0035809479 -0.022957256
000010 ec 19 3d bd 66 1f e3 3d 0a d0 0f 3e 32 26 fa 3d
       -0.0461673 0.11089973 0.14044204 0.122143164
000020 91 f7 e8 3d 25 35 96 3d c1 61 fd 3d 64 87 05 3e
       0.113753445 0.07334355 0.12372161 0.13039929
000030 26 90 46 3e 73 c0 8b 3d 40 8a 52 3d bb 9e bf 3d
       0.19390926 0.06823816 0.051401377 0.09356447
000040 15 0e cc 3d 27 a3 3e 3d 9c d2 ea 3d 4a 4a f8 3d
       0.099636234 0.046542313 0.11465952 0.121235445
000050 00 65 93 bd cf bb 01 bd 38 83 99 3c b0 97 6d 3c
       -0.071969986 -0.03167325 0.018739328 0.014501497
000060 46 69 f7 bd 23 b9 09 3e e6 43 07 3d 77 4d a8 3d
       -0.12080626 0.1344953 0.033023737 0.082179
000070 32 2e 66 3d ac 9c 2d 3e 9f bf e8 3d da e7 85 3c
       0.0561964 0.16954297 0.11364674 0.016345907
