outputs/pytorch_models/ppn_model.pth (torch, 75165 bytes, 16 tensors)

fc1.weight f4 [128, 46]
0.11099867 0.12798421 -0.07104812 0.14704789 -0.06034971 0.002114611 -0.042234514 0.008009875
0.17301334 -0.21903302 0.09794661 -0.03630121 0.05072455 0.08069714 0.18879256 0.09000499
0.09795354 0.04320051 0.04524211 0.050292213 -0.08763691 0.014628143 0.006598003 0.19104168
-0.10083951 -0.015573983 -0.06660191 -0.13674644 0.07328949 -0.078656964 0.103337966 -0.14414874
0.04159382 0.05163393 -0.070656516 0.15756777 0.14554408 0.18332642 0.102605715 -0.04965433
0.029023273 -0.053618744 0.055011693 0.14634736 0.061115 -0.028012764 -0.04375313 -0.065676674
0.10000007 -0.021520281 -0.16692747 0.015498128 -0.04243419 0.039880257 0.051499877 0.045196746
-0.022937916 0.030336147 0.10605204 -0.14632978 -0.09500702 0.0026682417 -0.04277321 -0.047526885
0.09950565 0.05652613 0.18542196 -0.035396643 -0.0923036 -0.05187064 0.038781565 0.120500825
0.21432453 -0.19916524 -0.16884987 -0.20964147 -0.09455103 0.15877937 0.0005065854 0.16376153
-0.008987567 -0.114035934 0.012482477 0.0044146013 0.058935788 -0.06448554 0.0292114 -0.13748415
-0.083394 0.055412374 -0.0028240026 -0.17069916 0.0671702 0.15587874 -0.10773426 -0.06719891
0.2816657 -0.0070749666 -0.08085404 -0.12810583 -0.11713141 0.04313854 0.058023058 0.019030655
-0.025263403 -0.06793016 -0.22902082 0.030754417 -0.051802855 -0.113161415 0.08824863 0.20746937
0.12279207 -0.054724187 -0.14476855 -0.017719926 0.008760178 -0.045211226 -0.018148214 0.030029321
-0.066142246 -0.0569536 -0.04802998 -0.1424551 -0.10547981 0.059045225 0.011142268 -0.17499927
0.05662869 -0.057110902 0.1415701 0.0106639 -0.15755737 0.15070684 0.067962214 0.058113564
-0.13786462 -0.16882427 0.038508587 0.004780699 -0.051927462 -0.17743148 0.17430249 -0.012981863
0.031425573 0.028523408 0.0036141248 0.22116187 0.17115924 0.025435176 0.07239328 -0.08706726
0.072500244 -0.1269372 0.16778591 -0.085526995 0.18373172 0.018986162 0.0545694 -0.050760154
0.20503922 -0.090272576 -0.01399847 -0.14533196 0.053134695 -0.06929843 0.036441162 0.06632249
-0.022594487 0.06518039 -0.10214339 -0.06810307 0.08086219 0.0514991 0.04698957 -0.03623093
-0.20803343 0.109783694 0.059527434 -0.04214203 0.027643148 0.054405086 -0.016417515 0.014566244
0.021055141 0.050745647 0.021115575 0.037766118 0.018408589 0.08914704 -0.01810722 -0.042555746
0.0976856 0.09212418 -0.034657847 -0.060176898 0.0016280854 -0.0421146 -0.07165202 0.10121387
-0.086102135 -0.04886371 0.11426829 0.086408116 0.01737683 -0.0815971 -0.16738564 -0.060735963
-0.021300137 0.08384609 0.13596596 0.049379308 -0.21434066 -0.06478455 0.013172036 0.08776825
-0.030133381 -0.015293423 0.09414073 -0.13909736 -0.21019842 0.12387861 -0.017961407 -0.032174025
-0.104166865 -0.024615701 0.10614297 0.08242813 -0.099198736 -0.2040907 -0.1386276 0.017768543
0.0065467106 0.34013063 0.15195316 -0.004809437 0.05883835 -0.012606185 -0.068699956 -0.21798995
0.0091114445 -0.1189553 -0.006109514 -0.082735814 -0.09948668 -0.0971614 0.010308258 0.12397622
-0.0032019536 0.14855343 -0.10852697 -0.09549462 -0.038501117 -0.08957335 -0.06332641 -0.0979486
00000000: 4553 e33d 4b0e 033e ad81 91bd b993 163e
00000010: 4231 77bd 4995 0a3b 19fe 2cbd da3b 033c
00000020: 692a 313e 314a 60be 3b98 c83d 94b0 14bd
00000030: 8cc4 4f3d 8b44 a53d d652 413e 8954 b83d
00000040: de9b c83d 05f3 303d ca4f 393d 35ff 4d3d
00000050: fb7a b3bd e1aa 6f3c 1034 d83b 6ea0 433e
00000060: f284 cebd 052a 7fbc 9566 88bd 4207 0cbe
00000070: cd18 963d e716 a1bd dba2 d33d ba9b 13be
00000080: 485e 2a3d 1a7e 533d 5db4 90bd 7259 213e
00000090: 8209 153e ecb9 3b3e f222 d23d 5762 4bbd
000000a0: 37c2 ed3c 549f 5bbd f153 613d 15dc 153e
000000b0: b953 7a3d 067b e5bc 7b36 33bd 7e81 86bd
000000c0: d6cc cc3d 4d4b b0bc 09ef 2abe dceb 7d3c
000000d0: 79cf 2dbd 7b59 233d 89f1 523d 3920 393d
000000e0: 4ce8 bbbc 8383 f83c d031 d93d 79d7 15be
000000f0: 0a93 c2bd abdd 2e3b f632 2fbd 8dab 42bd
00000100: 9ec9 cb3d f187 673d 41df 3d3e 12fc 10bd
00000110: ab09 bdbd 4f76 54bd 6bd9 1e3d 23c9 f63d
00000120: e477 5b3e f9f1 4bbe fbe6 2cbe 41ac 56be
00000130: f8a3 c1bd 0f97 223e 5fcc 043a 1ab1 273e
00000140: 9740 13bc ac8b e9bd 4e83 4c3c 5ca8 903b
00000150: a766 713d ff10 84bd bf4c ef3c a5c8 0cbe
00000160: 79ca aabd 16f8 623d e712 39bb c3cb 2ebe
00000170: 8890 893d ad9e 1f3e c8a3 dcbd 959f 89bd
00000180: 7d36 903e 1fd5 e7bb ce96 a5bd 2d2e 03be
00000190: 98e2 efbd 0ab2 303d 96a9 6d3d 2de6 9b3c
000001a0: 32f5 cebc f81e 8bbd 6f84 6abe b0f0 fb3c
000001b0: 3b2f 54bd 2cc1 e7bd b3bb b43d da72 543e
000001c0: 697a fb3d 7826 60bd 353e 14be 6129 91bc
000001d0: da86 0f3c 682f 39bd 90ab 94bc 0d00 f63c
000001e0: 9675 87bd 2e48 69bd 16bb 44bd c0df 11be
000001f0: cc05 d8bd 68d9 713d 0f8e 363c 0233 33be
00000200: 7cf3 673d 1fed 69bd c1f7 103e a3b7 2e3c
00000210: b856 21be e552 1a3e c62f 8b3d 7d08 6e3d
00000220: 622c 0dbe 45e0 2cbe 2ebb 1d3d 69a7 9c3b
00000230: e4b1 54bd 99b0 35be 5a7c 323e e1b1 54bc
00000240: 1ab8 003d eca9 e93c f4da 6c3b 4278 623e
00000250: 5e44 2f3e 6e5d d03c ee42 943d 5250 b2bd
00000260: 027b 943d d3fb 01be 12d0 2b3e c728 afbd
00000270: 2b24 3c3e de88 9b3c 2a84 5f3d e1e9 4fbd
00000280: cdf5 513e d4e0 b8bd d759 65bc e7d1 14be
00000290: c4a3 593d 56ec 8dbd 5443 153d 16d4 873d
000002a0: 1318 b9bc 4c7d 853d 8e30 d1bd 9f79 8bbd
000002b0: 139b a53d b8f0 523d 2378 403d e266 14bd
000002c0: b706 55be 46d6 e03d 0ad3 733d 1f9d 2cbd
000002d0: e273 e23c ded7 5e3d 067e 86bc 41a7 6e3c
000002e0: d57b ac3c abda 4f3d 92fa ac3c a5b0 1a3d
000002f0: 9ccd 963c b992 b63d 9855 94bc ef4e 2ebd
00000300: 630f c83d 9aab bc3d 63f5 0dbd 0d7c 76bd
00000310: 7b65 d53a 5c80 2cbd 4bbe 92bd 3849 cf3d
00000320: 5156 b0bd 5025 48bd 7e05 ea3d bdf6 b03d
00000330: db59 8e3c 611c a7bd 2467 2bbe 46c6 78bd
00000340: a07d aebc 80b7 ab3d a93a 0b3e f541 4a3d
00000350: 1e7c 5bbe c3ad 84bd 86cf 573c d7bf b33d
00000360: 48da f6bc 4491 7abc dbcc c03d 8a6f 0ebe
00000370: 413e 57be 12b4 fd3d cd23 93bc e9c8 03bd
00000380: 7055 d5bd dea6 c9bc 7c61 d93d 14d0 a83d
00000390: b528 cbbd 27fd 50be 65f4 0dbe 568f 913c
000003a0: ca85 d63b 9a25 ae3e 9c99 1b3e 7b98 9dbb
000003b0: 7b00 713d 2c8a 4ebc 90b2 8cbd c238 5fbe
000003c0: 2b48 153c d69e f3bd 5132 c8bb 6571 a9bd
000003d0: acbf cbbd 8efc c6bd f8e3 283c 3fe7 fd3d
000003e0: ded7 51bb 641e 183e 6343 debd af92 c3bd
000003f0: 59b3 1dbd 3c72 b7bd 47b1 81bd 4799 c8bd

fc1.bias f4 [128]
-0.05712022 -0.03932899 -0.08025989 0.108128786 0.016946714 -0.027934575 -0.06266769 -0.12416651
0.009243084 0.12207564 0.10106199 0.11200514 0.0887054 0.058957268 -0.0072102323 -0.10978102
0.10268366 -0.10653716 -0.08645238 0.061652757 0.09508186 -0.07807677 0.09806617 -0.1365901
0.030365119 0.06601017 0.031136729 -0.07498902 -0.09757262 0.109667115 0.030719995 -0.06277234
0.15079169 -0.0264389 -0.028683327 0.040150367 0.11751293 -0.06396736 0.00028427664 -0.07655257
-0.06783138 -0.023762347 0.004615322 0.08702054 -0.1118819 0.083697684 0.115791894 -0.015345974
0.00080692396 0.03689271 -0.13283466 0.107937604 -0.024934663 0.007460218 0.06762347 0.056161076
-0.06534178 -0.11292962 -0.1366161 -0.12410413 -0.030154163 -0.11690963 -0.027136283 -0.076469764
0.07759645 0.10249754 0.1212521 -0.10358157 -0.10143642 0.04607858 -0.034846302 0.11001774
-0.13090667 0.14135449 -0.10416712 -0.12102356 -0.01726418 -0.07144204 -0.09452902 0.090361476
0.12320429 0.07971331 0.0146501055 -0.019165594 -0.07899116 0.13875964 -0.07759635 -0.13065818
0.12624644 -0.018130032 0.094753824 -0.052389693 0.11709892 -0.095635734 0.08736736 0.115602456
-0.0032481265 0.09378533 0.0057226154 -0.12902021 0.063246906 -0.11687093 0.0010548477 -0.12766539
-0.07323449 -0.05089395 -0.054458566 -0.14425217 -0.061357338 -0.13822997 -0.12919769 -0.14633112
-0.07877064 -0.031637277 0.13419548 -0.11038889 -0.114914574 -0.11871601 0.13348787 -0.018856049
-0.044417158 0.07658685 -0.091046855 -0.04103786 0.13499616 0.083707005 -0.115898415 -0.04496755
00000000: e4f6 69bd 6f17 21bd 4c5f a4bd a072 dd3d
00000010: d6d3 8a3c 0dd7 e4bc eb57 80bd 034b febd
00000020: 4e70 173c cb02 fa3d 97f9 ce3d f362 e53d
00000030: 2dab b53d 2d7d 713d d043 ecbb dfd4 e0bd
00000040: d04b d23d 2830 dabd f20d b1bd 9a87 7c3d
00000050: 47ba c23d b7e6 9fbd ebd6 c83d 46de 0bbe
00000060: 45c0 f83c 5730 873d 7412 ff3c d893 99bd
00000070: 27d4 c7bd 2799 e03d 80a8 fb3c c98e 80bd
00000080: 2369 1a3e 6496 d8bc 4cf9 eabc b674 243d
00000090: 9eaa f03d 5201 83bd f70a 9539 98c7 9cbd
000000a0: 2eeb 8abd 41a9 c2bc 213c 973b d337 b23d
000000b0: 5622 e5bd b169 ab3d 4d24 ed3d ae6d 7bbc
000000c0: c087 533a cf1c 173d cf05 08be 640e dd3d
000000d0: c743 ccbc d874 f43b 2d7e 8a3d 2809 663d
000000e0: e9d1 85bd a547 e7bd 17e5 0bbe 4e2a febd
000000f0: dd05 f7bc 516e efbd e94c debc 2e9c 9cbd
00000100: e3ea 9e3d 3bea d13d 0553 f83d 9322 d4bd
00000110: e6bd cfbd e5bc 3c3d ffba 0ebd fb50 e13d
00000120: 660c 06be 3bbf 103e 9255 d5bd 33db f7bd
00000130: 9c6d 8dbc 3450 92bd 6e98 c1bd 700f b93d
00000140: 8852 fc3d bb40 a33d ff06 703c 2a01 9dbc
00000150: 1ec6 a1bd 0217 0e3e d6ea 9ebd 42cb 05be
00000160: bf46 013e 6f85 94bc 4b0e c23d 9396 56bd
00000170: 8fd1 ef3d abdc c3bd a9ed b23d fbc0 ec3d
00000180: 85de 54bb 8612 c03d c784 bb3b e01d 04be
00000190: 9887 813d 075a efbd d142 8a3a b7ba 02be
000001a0: f7fb 95bd 2d76 50bd f20f 5fbd d7b6 13be
000001b0: d551 7bbd 288c 0dbe 664c 04be d3d7 15be
000001c0: 8052 a1bd 1796 01bd 8a6a 093e 9213 e2bd
000001d0: 5558 ebbd 6121 f3bd 0bb1 083e 0078 9abc
000001e0: c4ee 35bd 91d9 9c3d c676 babd 5117 28bd
000001f0: 6f3c 0a3e 946e ab3d 265c edbd e52f 38bd

bn1.weight f4 [128]
1.0173923 0.99713916 0.91529834 0.9972991 1.0215043 1.0069274 1.0549928 0.9327655
0.97486806 1.008564 0.9728671 1.0065664 1.0162257 1.0166596 1.0325232 1.0320318
0.9641164 1.0509275 1.0101861 0.9024309 1.0373094 0.99016434 1.0184765 1.0343541
0.9980106 0.98937327 0.9918691 1.0427809 1.0385684 1.050852 0.9407042 0.929791
0.9479425 1.0033001 0.98046017 1.0439943 0.9997151 0.97619414 0.99904853 1.0529745
0.95070726 0.94855994 0.99607486 0.99536264 0.9905354 1.0298759 1.050622 0.9547075
1.0561613 0.960239 1.0131453 0.92183834 1.0520693 0.9885915 1.0017213 0.9693049
0.9528073 1.0474371 1.0156066 1.0039943 1.0388868 0.99066335 1.0386257 0.99861246
1.015019 1.0508808 1.0454911 0.9196501 0.9751024 0.9394201 0.99543166 0.9878495
1.051812 0.98835427 0.99203545 0.97006774 0.942203 0.9976215 1.0381532 0.95204836
1.0467778 0.9679949 0.9167622 1.0019448 1.0142715 0.9418098 0.9872266 1.0195897
1.0084617 0.9896162 0.9388156 0.98068434 1.128327 1.003519 0.9876396 0.992874
0.97377944 1.0044941 1.0065789 1.0039092 0.9620967 0.9213249 0.9941874 1.0087633
1.003649 0.9887169 1.0009505 1.0100275 1.0250384 0.95607096 1.0338631 1.0217541
1.0348113 0.98175615 0.9437317 1.0247571 0.99335253 1.0322157 1.0195467 1.0421938
0.9484375 0.95796996 0.981224 0.98667425 0.97233176 0.98714507 0.94166833 0.90699005
00000000: e939 823f 8344 7f3f fe50 6a3f fe4e 7f3f
00000010: a7c0 823f ffe2 803f 010a 873f b8c9 6e3f
00000020: f490 793f a018 813f d10d 793f 2bd7 803f
00000030: af13 823f e721 823f b829 843f 9e19 843f
00000040: 55d0 763f cb84 863f c74d 813f b605 673f
00000050: 8ec6 843f 697b 7d3f 705d 823f b765 843f
00000060: 9f7d 7f3f 9147 7d3f 22eb 7d3f d879 853f
00000070: cfef 843f 5182 863f fed1 703f c806 6e3f
00000080: 5cac 723f 236c 803f 70ff 7a3f 9ba1 853f
00000090: 54ed 7f3f dce7 793f a5c1 7f3f dec7 863f
000000a0: 8d61 733f d3d4 723f c3fe 7e3f 16d0 7e3f
000000b0: ba93 7d3f f9d2 833f c87a 863f b667 743f
000000c0: 4b30 873f 39d2 753f bfae 813f 99fd 6b3f
000000d0: 35aa 863f 5514 7d3f 6738 803f 5e24 783f
000000e0: 2eeb 733f 6b12 863f 66ff 813f e382 803f
000000f0: 3efa 843f 1d9c 7d3f b0f1 843f 11a5 7f3f
00000100: 25ec 813f 4383 863f a7d2 853f 306e 6b3f
00000110: 50a0 793f d67d 703f 9cd4 7e3f b4e3 7c3f
00000120: c7a1 863f c904 7d3f 09f6 7d3f 5c56 783f
00000130: 3734 713f 1f64 7f3f 34e2 843f 71b9 733f
00000140: d1fc 853f 84ce 773f edb0 6a3f ba3f 803f
00000150: a6d3 813f 721a 713f e2ba 7c3f ea81 823f
00000160: 4615 813f 7d57 7d3f 3856 703f 210e 7b3f
00000170: 056d 903f 5073 803f f3d5 7c3f fe2c 7e3f
00000180: 9c49 793f 4393 803f 94d7 803f 1980 803f
00000190: f84b 763f f3db 6b3f 1183 7e3f 281f 813f
000001a0: 9277 803f 8d1c 7d3f 251f 803f 9548 813f
000001b0: 7534 833f 11c1 743f a055 843f d7c8 823f
000001c0: b274 843f 5f54 7b3f 6798 713f 3e2b 833f
000001d0: 5a4c 7e3f a51f 843f 8280 823f 9b66 853f
000001e0: cdcc 723f 853d 753f 7f31 7b3f af96 7c3f
000001f0: bcea 783f 8ab5 7c3f 2d11 713f 8030 683f

bn1.bias f4 [128]
-0.09014657 -0.1391032 -0.14565796 -0.07505925 -0.003115019 -0.13658558 -0.06711179 -0.18337347
-0.03682355 -0.08653927 -0.17954247 -0.13464536 -0.14166209 -0.1201759 -0.11784633 -0.072221264
-0.08747963 -0.09575584 -0.10784665 -0.10336254 -0.03956795 -0.06958447 -0.1283841 -0.07065366
-0.037906557 -0.020557504 -0.16156499 -0.054652277 -0.023350524 -0.123378016 -0.12265116 -0.08224552
-0.0517833 -0.15578969 -0.05151702 -0.0705282 -0.19614525 -0.06576635 -0.17503433 -0.0329961
-0.17086074 -0.13400322 -0.18824778 -0.101249844 0.024944166 -0.09682166 -0.19026993 -0.023881724
-0.17246018 -0.054210052 -0.09886318 -0.14950693 -0.16908346 0.016928526 -0.14525568 -0.07647012
-0.16804177 0.017405698 -0.117198795 -0.18332691 -0.113545485 -0.04333722 -0.05295166 -0.2381269
-0.12841317 -0.13610971 -0.16633855 -0.117627986 -0.08185351 -0.16150126 -0.17990531 -0.10599034
-0.07890219 -0.09680163 -0.11782704 0.0033292023 -0.16886537 -0.13788763 -0.19131991 -0.07489872
-0.12129734 -0.14801061 -0.10668431 -0.04746597 -0.14119744 -0.12117891 -0.09165996 -0.16319399
-0.24944063 -0.1062493 -0.12170021 -0.18240416 -0.14420965 -0.06674702 -0.118383385 -0.13349997
-0.11919845 -0.04649002 -0.12287059 -0.03228836 -0.065207556 -0.16782734 -0.021791894 -0.17931338
-0.1778269 -0.05795211 -0.040149935 -0.17034091 -0.16872565 -0.10540045 -0.17707035 -0.13120848
-0.12862705 -0.011509072 -0.13839823 -0.17842251 -0.19583514 0.0028048416 -0.11095305 -0.21882145
-0.097310536 -0.023606682 -0.24240859 -0.1261197 -0.07173187 -0.16950265 -0.09568558 -0.11122973
00000000: c49e b8bd 1271 0ebe 5c27 15be aab8 99bd
00000010: 5925 4cbb 17dd 0bbe e871 89bd 41c6 3bbe
00000020: 4ad4 16bd 803b b1bd fbd9 37be 79e0 09be
00000030: de0f 11be c81e f6bd 6b59 f1bd bee8 93bd
00000040: 8528 b3bd a31b c4bd b4de dcbd bdaf d3bd
00000050: 0112 22bd 4d82 8ebd 1f77 03be deb2 90bd
00000060: e843 1bbd 3668 a8bc 4b71 25be 11db 5fbd
00000070: 9949 bfbc 9dad fcbd 8830 fbbd 5770 a8bd
00000080: ba1a 54bd 5587 1fbe 8303 53bd 1771 90bd
00000090: 4dda 48be 82b0 86bd 333c 33be eb26 07bd
000000a0: 1ef6 2ebe 2438 09be 07c4 40be 145c cfbd
000000b0: b557 cc3c 6f4a c6bd 1fd6 42be 9ba3 c3bc
000000c0: 6799 30be 5c0b 5ebd c778 cabd 5818 19be
000000d0: 3724 2dbe b1ad 8a3c e8bd 14be 5e9c 9cbd
000000e0: 2413 2cbe 6596 8e3c ec05 f0bd 0dba 3bbe
000000f0: 898a e8bd 5e82 31bd d7e3 58bd 8ad7 73be
00000100: be7e 03be 5860 0bbe a754 2abe f1e6 f0bd
00000110: d0a2 a7bd 9660 25be 1939 38be 7711 d9bd
00000120: 7997 a1bd ef3f c6bd 4e4f f1bd bf2e 5a3b
00000130: 0beb 2cbe 6a32 0dbe 5ee9 43be 8064 99bd
00000140: bd6a f8bd 1890 17be 4e7d dabd ad6b 42bd
00000150: 1096 10be a62c f8bd 38b8 bbbd 531c 27be
00000160: 5d6d 7fbe 3c99 d9bd f63d f9bd 28c8 3abe
00000170: b2ab 13be a9b2 88bd fd72 f2bd 37b4 08be
00000180: 511e f4bd 526c 3ebd 93a3 fbbd cd40 04bd
00000190: 8a8b 85bd eeda 2bbe ea84 b2bc ed9d 37be
000001a0: 4118 36be 315f 6dbd 4274 24bd d96d 2ebe
000001b0: 6bc6 2cbe 31dc d7bd ee51 35be 845b 06be
000001c0: cfb6 03be 8c90 3cbc 44b8 0dbe 64b4 36be
000001d0: 0289 48be 6fd1 373b 5a3b e3bd bb12 60be
000001e0: bf4a c7bd cd62 c1bc f539 78be 8625 01be
000001f0: 29e8 92bd 1a92 2dbe cdf6 c3bd 6acc e3bd

bn1.running_mean f4 [128]
-0.1152136 -0.044832036 -0.05355215 0.09513565 0.029599989 -0.048305318 -0.04244997 -0.10581512
0.022070616 0.122551724 0.084679745 0.077990875 0.07113601 0.024429932 -0.039705798 -0.13366513
0.10612268 -0.110856 -0.09804201 0.03965725 0.091950126 -0.060810417 0.055658806 -0.14940497
0.03388687 0.10672899 0.035147168 -0.088238984 -0.09975477 0.116328806 0.053017795 -0.02235396
0.16980074 -0.06853465 -0.03974837 0.026824895 0.11726816 -0.11491203 -0.01302778 -0.07877336
-0.054791525 -0.038793262 0.034421995 0.117133945 -0.13049386 0.018601166 0.13137698 -0.06124336
-0.01742044 0.00668683 -0.11465534 0.1550136 -0.024804588 0.014059168 0.05864044 0.047746528
-0.1265507 -0.10692873 -0.18227619 -0.19686928 -0.0607218 -0.10811864 -0.02975086 -0.10142129
0.04266408 0.074967094 0.097054236 -0.08677423 -0.10292736 0.04304529 -0.030226342 0.13589592
-0.11772467 0.12241666 -0.09174363 -0.09994448 -0.015036348 -0.08619599 -0.11436196 0.09536685
0.12014164 0.057455692 0.013781176 -0.020865235 -0.063136496 0.14245744 -0.09864329 -0.10999513
0.117387936 -0.04209648 0.10838783 -0.06212801 0.1280647 -0.07026922 0.106709935 0.1054049
-0.0056160176 0.10188505 -0.012137188 -0.13856885 0.10822866 -0.107814014 0.0070808777 -0.12458291
-0.08413313 -0.07628091 -0.06451008 -0.19659355 -0.038455434 -0.13693087 -0.17613699 -0.15740436
-0.094644055 -0.027058613 0.13797908 -0.12312251 -0.12624972 -0.1316241 0.14325376 -0.05612071
-0.02187663 0.08485198 -0.15305519 -0.04743096 0.116637096 0.07831338 -0.1454943 -0.021279385
00000000: 1cf5 ebbd cca1 37bd 8059 5bbd 7bd6 c23d
00000010: ad7b f23c ccdb 45bd 05e0 2dbd 99b5 d8bd
00000020: 70cd b43c 66fc fa3d 936c ad3d aeb9 9f3d
00000030: c2af 913d 4821 c83c 8ca2 22bd 83df 08be
00000040: d956 d93d 7808 e3bd 40ca c8bd a46f 223d
00000050: 5950 bc3d 5814 79bd 7dfa 633d 9efd 18be
00000060: f5cc 0a3d bb94 da3d 7af6 0f3d a4b6 b4bd
00000070: 3b4c ccbd cc3d ee3d 3029 593d a71f b7bc
00000080: 3fe0 2d3e e55b 8cbd 30cf 22bd e2bf db3c
00000090: 4a2a f03d 0057 ebbd 7872 55bc ed53 a1bd
000000a0: 146d 60bd afe5 1ebd 14fe 0c3d ece3 ef3d
000000b0: 2fa0 05be 7961 983c b087 063e 51da 7abd
000000c0: 50b5 8ebc 321d db3b 6bd0 eabd e3bb 1e3e
000000d0: fe32 cbbc 6d58 663c f530 703d dd91 433d
000000e0: 8296 01be 73fd dabd 9ca6 3abe 1a98 49be
000000f0: 6cb7 78bd 4e6d ddbd 13b8 f3bc f7b5 cfbd
00000100: 88c0 2e3d 5988 993d 5fc4 c63d b0b6 b1bd
00000110: 94cb d2bd 4250 303d 3c9d f7bc 4d28 0b3e
00000120: a219 f1bd 96b5 fa3d 16e4 bbbd b1af ccbd
00000130: 045b 76bc 8687 b0bd 9a36 eabd b24f c33d
00000140: d20c f63d a956 6b3d 71ca 613c 92ed aabc
00000150: b54d 81bd 5de0 113e 7e05 cabd 2045 e1bd
00000160: 1669 f03d 5c6d 2cbd 70fa dd3d f179 7ebd
00000170: 6523 033e 4fe9 8fbd bd8a da3d 86de d73d
00000180: 9206 b8bb 1ca9 d03d 0edb 46bc fee4 0dbe
00000190: fda6 dd3d 98cd dcbd b506 e83b 5325 ffbd
000001a0: fe4d acbd 2a39 9cbd dc1d 84bd d24f 49be
000001b0: 7283 1dbd 9b37 0cbe 415d 34be 9c2e 21be
000001c0: bed4 c1bd 06aa ddbc 634a 0d3e a827 fcbd
000001d0: 9b47 01be 78c8 06be 1db1 123e d4de 65bd
000001e0: 9e36 b3bc e0c6 ad3d 80ba 1cbe f746 42bd
000001f0: 6edf ee3d c462 a03d 75fc 14be 1b52 aebc

bn1.running_var f4 [128]
0.5000161 0.4585406 0.575667 0.41170877 0.80297726 0.27300087 0.54141223 0.5266576
0.4675148 0.24554567 0.59597653 0.45433196 0.49624285 0.41064334 0.84525794 0.35662436
0.46387252 0.47778204 0.9363475 0.95201117 0.26662713 0.32171357 1.059254 0.5919529
0.4073881 0.30592725 0.3869689 0.5150837 0.6567288 0.2601545 0.35654527 0.69270843
0.56974244 1.5166548 0.20002916 0.49943957 0.4601599 0.8405181 0.5314993 0.4022997
0.23951101 0.39784107 0.47832334 0.24836357 0.3088705 0.670074 0.63276416 0.43067104
0.48718548 0.34614104 0.53369206 0.4157244 0.43814072 0.40512264 0.7590419 0.36419383
1.1693769 0.2601006 0.717834 0.869033 0.46911997 0.34267402 0.27690488 0.8325003
0.5509373 0.5297562 0.35696334 0.25711673 0.4159891 0.46457946 0.46007445 0.26194647
0.51159775 0.38267848 0.41611767 0.7243777 0.71211 0.33126143 0.31437084 0.30840003
0.2840984 1.0711199 0.564715 0.32194033 0.38621292 0.504036 0.64529115 0.32654235
0.3055165 0.46216905 0.6454334 0.49241266 0.31733993 0.3549092 0.47631967 0.6089309
0.57780766 0.49383187 0.72242856 0.37831146 0.4189424 0.3359045 0.46601972 0.5295519
0.35007158 0.36650488 0.36216053 1.407594 0.26799378 0.42624086 0.4681937 0.6506799
0.391955 0.40998068 0.42725363 0.57344526 0.7247347 0.2874308 0.24066763 0.54390645
0.6747008 0.6088901 0.37209666 0.50766414 0.35711464 0.34069034 1.6545781 0.50166655
00000000: 0e01 003f d5c5 ea3e ea5e 133f 7ecb d23e
00000010: eb8f 4d3f c5c6 8b3e fe99 0a3f 08d3 063f
00000020: 1a5e ef3e 5370 7b3e eb91 183f 339e e83e
00000030: 8b13 fe3e d83f d23e d362 583f 7897 b63e
00000040: b380 ed3e d99f f43e 78b4 6f3f 01b7 733f
00000050: 5a83 883e a4b7 a43e a395 873f 3a8a 173f
00000060: 2c95 d03e 7fa2 9c3e ca20 c63e 86dc 033f
00000070: 611f 283f f832 853e 1a8d b63e 5755 313f
00000080: a4da 113f bf21 c23f 72d4 4c3e 8bb6 ff3e
00000090: 149a eb3e 322c 573f 5710 083f 3afa cd3e
000000a0: 6042 753e d3b1 cb3e cce6 f43e 0553 7e3e
000000b0: 4624 9e3e f889 2b3f d5fc 213f ea80 dc3e
000000c0: 6070 f93e 6639 b13e 0ba0 083f d4d9 d43e
000000d0: fb53 e03e 3c6c cf3e 9250 423f 9d77 ba3e
000000e0: 24ae 953f e82b 853e f8c3 373f f278 5e3f
000000f0: 7e30 f03e f872 af3e 7ac6 8d3e bd1e 553f
00000100: 3a0a 0d3f 1a9e 073f e6c3 b63e cea4 833e
00000110: 86fc d43e 5cdd ed3e e18e eb3e d91d 863e
00000120: 12f8 023f 6fee c33e 600d d53e d170 393f
00000130: d74c 363f 199b a93e 37f5 a03e 9ce6 9d3e
00000140: 5875 913e 751a 893f 2a91 103f 5dd5 a43e
00000150: b3bd c53e 8108 013f cd31 253f 8f30 a73e
00000160: a96c 9c3e 6ca1 ec3e 203b 253f 831d fc3e
00000170: 617a a23e a9b6 b53e 2ce0 f33e e5e2 1b3f
00000180: 34eb 133f 88d7 fc3e 14f1 383f 0ab2 c13e
00000190: 9e7f d63e adfb ab3e 239a ee3e b790 073f
000001a0: 953c b33e 87a6 bb3e 1b6d b93e 0a2c b43f
000001b0: 7b36 893e 3e3c da3e 16b7 ef3e f592 263f
000001c0: 53ae c83e fde8 d13e fdc0 da3e 4fcd 123f
000001d0: 3788 393f 212a 933e 9371 763e 743d 0b3f
000001e0: 31b9 2c3f 39e0 1b3f 7483 be3e 47f6 013f
000001f0: bbd7 b63e f76e ae3e 37c9 d33f 386d 003f

fc2.weight f4 [64, 128]
0.002245374 0.0055285688 0.029536352 0.07099152 0.032797635 -0.1373672 -0.036362994 -0.043293964
0.039416306 -0.13993637 0.076455675 -0.08410928 -0.040291544 0.079064555 0.062213063 0.058668874
-0.05974573 0.14424369 0.045146033 -0.078967996 0.013753321 -0.11996649 0.109134786 -0.018145606
-0.17530514 -0.021133455 0.047910362 -0.16622314 -0.086520076 -0.0067273676 -0.04962335 0.068101324
0.005399902 0.0255771 0.0048728497 0.038004924 -0.074803166 -0.06449637 -0.0033150057 0.10821592
0.08493347 0.038259722 0.014601 0.05515983 0.1061209 0.09890073 -0.123586245 -0.12860711
-0.081913374 0.06412095 0.0063734725 -0.015090206 -0.04752355 0.06750855 -0.006460367 0.09498914
-0.0027282126 0.035345014 0.100719966 0.14506075 -0.034319088 -0.091784865 -0.05720807 0.022581
0.014767441 0.034514677 0.042588305 -0.10817288 -0.086944014 0.043570746 0.0046477877 -0.05085835
0.10160488 0.05845471 0.13649966 -0.10355423 -0.008186763 -0.01754118 0.12875935 -0.099144116
-0.0074713095 0.027515464 0.116863 -0.09571669 0.027366877 0.0075339084 0.113080025 0.0047363406
-0.010348395 0.017617919 -0.05937987 0.11919218 -0.103337206 0.00026136445 0.116639815 0.09631165
0.06851593 -0.032876566 0.06976653 -0.078177 -0.0700719 0.06544988 -0.0023491213 -0.08298324
-0.025891788 -0.025410507 0.066143245 -0.04058193 -0.062426865 -0.0038288303 -0.005175842 0.024331907
-0.0725401 -0.01520198 -0.02397999 -0.06030495 0.1401736 -0.18313195 0.002671566 -0.017841557
-0.1016257 0.01242837 -0.15082958 -4.4685148e-05 0.10829189 -0.034244627 -0.047649164 0.07266703
-0.013525439 0.03706915 -0.021403901 0.07207887 -0.12534809 -0.0119971065 0.00136199 -0.06621079
-0.039639186 0.058518197 -0.08807413 0.12666473 0.010751213 0.056278173 0.13796577 0.002617329
-0.009616158 0.030641695 -0.15810464 -0.044295475 -0.012801511 -0.028483426 0.055486627 -0.06819907
-0.11741978 -0.016658818 -0.03156369 0.05877279 -0.05316258 -0.090109706 -0.011921873 -0.03706953
-0.05461354 0.036157213 -0.0143496655 0.0504225 -0.1504907 -0.0394572 -0.047608405 0.025465284
-0.06571538 0.09451952 0.03444429 -0.081635416 -0.16160578 0.026704885 -0.08669854 0.080640875
0.030309571 -0.12542894 -0.042026903 -0.101176664 -0.11639973 -0.03478826 0.0087972 0.01576568
0.07970285 0.07806624 0.09253939 0.022850834 0.013121297 -0.07109051 -0.10675289 0.0558997
-0.023609368 -0.07431658 -0.08591232 -0.009614351 -0.09944305 -0.105633095 0.023428967 -0.019546337
0.13812178 0.11085051 -0.029217416 -0.16197684 -0.06718349 -0.048087195 0.039725903 -0.092186235
-0.033557814 -0.06783629 0.01262181 -0.14083652 -0.08557813 0.0030906633 0.043597266 0.09418454
-0.086612314 0.06491517 -0.06312648 -0.06723281 0.013705547 -0.12287497 0.016398592 -0.022110358
-0.058888067 -0.004035162 0.007246614 -0.015509127 -0.0005530142 0.007819904 -0.055923432 -0.035563238
-0.0682627 0.005081558 0.005242785 0.05313168 -0.0838499 -0.08838492 0.09545143 -0.032390624
0.02661068 -0.052866034 -0.061329868 -0.06189447 0.029688118 -0.099323556 0.04312667 -0.023133524
-0.109087974 -0.13060883 0.010745428 -0.025039554 -0.07465472 0.12293592 0.06340199 0.01253534
00000000: 2027 133b ff28 b53b 38f6 f13c 0164 913d
00000010: d056 063d fda9 0cbe 5df1 14bd 0355 31bd
00000020: fe72 213d 7b4b 0fbe cb94 9c3d 7c41 acbd
00000030: bf08 25bd 99ec a13d 20d3 7e3d c64e 703d
00000040: f0b7 74bd 9eb4 133e 0ceb 383d f9b9 a1bd
00000050: 9c55 613c feb0 f5bd 0f82 df3d 18a6 94bc
00000060: 3183 33be 1120 adbc a83d 443d 6636 2abe
00000070: 7031 b1bd 4071 dcbb db41 4bbd b578 8b3d
00000080: a9f1 b03b 1187 d13c 6dac 9f3b 0dab 1b3d
00000090: 6732 99bd ac16 84bd 9140 59bb 4fa0 dd3d
000000a0: 99f1 ad3d 3ab6 1c3d 0839 6f3c 46ef 613d
000000b0: ea55 d93d 778c ca3d c91a fdbd 95b1 03be
000000c0: 33c2 a7bd d851 833d 90d8 d03b e93c 77bc
000000d0: 0ea8 42bd ec41 8a3d 7cb1 d3bb ab89 c23d
000000e0: d0cb 32bb efc5 103d 4546 ce3d ce8a 143e
000000f0: 2c92 0cbd b4f9 bbbd 0253 6abd cafb b83c
00000100: 23f3 713c 435f 0d3d 1371 2e3d be89 ddbd
00000110: b40f b2bd 3d77 323d 784c 983b d850 50bd
00000120: 3816 d03d 356e 6f3d 91c6 0b3e 3d14 d4bd
00000130: c621 06bc 85b2 8fbc 7ed9 033e 120c cbbd
00000140: e3d1 f4bb 1c68 e13c de55 ef3d 1d07 c4bd
00000150: 8030 e03c 01df f63b 8096 e73d 4e33 9b3b
00000160: 518c 29bc 7453 903c 4e38 73bd 081b f43d
00000170: 75a2 d3bd be07 8939 dbe0 ee3d 0b3f c53d
00000180: 1452 8c3d 94a9 06bd c1e1 8e3d 431b a0bd
00000190: db81 8fbd 960a 863d b7f3 19bb 1ef3 a9bd
000001a0: 041b d4bc b229 d0bc 1c76 873d 3d39 26bd
000001b0: 50b3 7fbd 1ded 7abb 1c9a a9bb b553 c73c
000001c0: e78f 94bd ba11 79bc af71 c4bc 5302 77bd
000001d0: ab89 0f3e f186 3bbe 7115 2f3b 7528 92bc
000001e0: 2321 d0bd 5da0 4b3c 1273 1abe 506c 3bb8
000001f0: 23c8 dd3d 1844 0cbd c52b 43bd 74d2 943d
00000200: ce99 5dbc d2d5 173d 3c57 afbc 169e 933d
00000210: 405b 00be 838f 44bc cd84 b23a 8699 87bd
00000220: b35c 22bd c7b0 6f3d 3660 b4bd 66b4 013e
00000230: db25 303c f183 663d e646 0d3e 7e87 2b3b
00000240: 178d 1dbc 4b04 fb3c 2fe6 21be 2c6f 35bd
00000250: 6ebd 51bc 1356 e9bc f245 633d f4ab 8bbd
00000260: c879 f0bd 1378 88bc ee48 01bd bdbb 703d
00000270: 01c1 59bd 708b b8bd f653 43bc 38d6 17bd
00000280: 73b2 5fbd 9619 143d dc1a 6bbc d387 4e3d
00000290: 3c1a 1abe df9d 21bd 0801 43bd 929c d03c
000002a0: c995 86bd 7393 c13d 7515 0d3d 7830 a7bd
000002b0: fc7b 25be 34c4 da3c 018f b1bd 0b27 a53d
000002c0: c74b f83c 7270 00be 6724 2cbd b635 cfbd
000002d0: fb62 eebd 227e 0ebd 2222 103c 0727 813c
000002e0: 3f3b a33d 31e1 9f3d 4b85 bd3d ac31 bb3c
000002f0: b5fa 563c e797 91bd 42a1 dabd 15f7 643d
00000300: 6f68 c1bc 4b33 98bd ccf2 afbd 8385 1dbc
00000310: cca8 cbbd 2a56 d8bd 1bee bf3c a41f a0bc
00000320: cc6f 0d3e 9805 e33d 5d59 efbc 42dd 25be
00000330: 7f97 89bd 14f7 44bd a1b7 223d 23cc bcbd
00000340: eb73 09bd c1ed 8abd b5cb 4e3c 7337 10be
00000350: 9643 afbd ba8c 4a3b 0c93 323d d3e3 c03d
00000360: cc61 b1bd 3ff2 843d 7548 81bd 5bb1 89bd
00000370: 3b8d 603c dfa5 fbbd 5756 863c c820 b5bc
00000380: 9d34 71bd 6439 84bb 0175 ed3b fe19 7ebc
00000390: 28f8 10ba 0e1f 003c f80f 65bd c2aa 11bd
000003a0: 51cd 8bbd 3383 a63b abcb ab3b 9ba0 593d
000003b0: 7fb9 abbd 2703 b5bd 0a7c c33d 08ac 04bd
000003c0: a4fe d93c 0e8a 58bd 0735 7bbd 0e85 7dbd
000003d0: 7f34 f33c 266a cbbd 97a5 303d 8482 bdbc
000003e0: 8469 dfbd 52be 05be 970d 303c c01f cdbc
000003f0: 93e4 98bd d4c5 fb3d e7d8 813d 0761 4d3c

fc2.bias f4 [64]
0.09026974 -0.082483985 -0.06573945 -0.017773526 -0.038977526 -0.0807016 0.028139647 -0.053886592
0.03298995 -0.068140425 0.0022759815 -0.028424686 -0.018066064 -0.034633912 -0.080310464 0.07425916
-0.006277702 -0.049141593 0.08296664 0.018433103 -0.019648997 0.026263768 -0.002711232 0.028961033
0.07539025 0.02556214 0.06397311 0.05020197 -0.039192084 -0.010778569 -0.01599993 0.085653156
-0.034735914 0.06230888 -0.026580159 0.07425929 0.04012311 0.043481603 -0.06527271 -0.014898597
0.07898052 -0.06834214 -0.018873524 -0.085448995 -0.084400125 0.06938438 -0.050439395 0.006245588
-0.07102976 -0.06887895 0.07859958 0.01788457 -0.029747872 -0.02567241 0.08561392 0.06266783
0.06357655 0.08129268 0.00744265 0.006433607 0.008975502 -0.03716333 -0.08158204 0.077539615
00000000: 57df b83d 5ded a8bd 68a2 86bd c999 91bc
00000010: e6a6 1fbd e146 a5bd 1e85 e63c 30b8 5cbd
00000020: 7820 073d 358d 8bbd a228 153b e3da e8bc
00000030: 48ff 93bc 4adc 0dbd d079 a4bd 3015 983d
00000040: 2eb5 cdbb b248 49bd 6aea a93d 0501 973c
00000050: eff6 a0bc 1d27 d73c edae 31bb b03f ed3c
00000060: 3466 9a3d b167 d13c 5504 833d 95a0 4d3d
00000070: e187 20bd 9898 30bc 4912 83bc ec6a af3d
00000080: 3f47 0ebd 9937 7f3d a2be d9bc 4115 983d
00000090: 2158 243d c419 323d b3ad 85bd 3f19 74bc
000000a0: 8ac0 a13d f7f6 8bbd a69c 9abc e2ff aebd
000000b0: f9d9 acbd 6619 8e3d 8a99 4ebd caa7 cc3b
000000c0: 0d78 91bd 6810 8dbd d1f8 a03d a982 923c
000000d0: cfb1 f3bc f24e d2bc 5a56 af3d fe57 803d
000000e0: 6c34 823d c77c a63d 79e1 f33b 02d1 d23b
000000f0: fc0d 133c 9338 18bd 7c14 a7bd 17cd 9e3d

bn2.weight f4 [64]
1.0258434 1.0397028 1.0945575 1.0179255 1.0231737 1.0900178 1.1146704 1.0374366
1.0794322 1.1590682 1.056442 0.97360945 1.0607262 1.0324718 1.082398 0.99882704
1.0645006 1.0707873 1.0962015 1.0083786 1.0297394 1.0540615 1.0222942 1.0150446
0.96437466 1.0716091 1.0454992 1.0470299 1.0591942 1.0951378 1.0551957 1.0357969
1.0405012 1.0544842 1.0209525 1.0016155 0.9549351 1.0289116 1.023495 1.0453072
1.0480158 1.038055 1.0561967 1.0891497 0.9668568 1.0392675 1.0180362 1.0058272
1.0422449 1.0201491 1.0109476 1.0403981 1.0713756 1.019969 1.0784107 1.0586927
1.0252981 1.0535786 1.0690513 0.98921764 1.0920374 1.0712768 0.98366964 1.0736641
00000000: d64e 833f fb14 853f 761a 8c3f 624b 823f
00000010: 5bf7 823f b485 8b3f 85ad 8e3f b9ca 843f
00000020: d62a 8a3f 595c 943f 7e39 873f 783e 793f
00000030: e0c5 873f 0928 843f 058c 8a3f 21b3 7f3f
00000040: 8e41 883f 8f0f 893f 5550 8c3f 8d12 813f
00000050: 80ce 833f 7deb 863f 89da 823f fbec 813f
00000060: 42e1 763f 7d2a 893f ebd2 853f 1305 863f
00000070: ad93 873f 7a2d 8c3f a710 873f fe94 843f
00000080: 252f 853f 57f9 863f 92ae 823f f034 803f
00000090: a076 743f 60b3 833f e201 833f a0cc 853f
000000a0: 6225 863f fcde 843f 7431 873f 4269 8b3f
000000b0: ed83 773f b806 853f 034f 823f f2be 803f
000000c0: 4868 853f 3f94 823f bb66 813f c42b 853f
000000d0: d622 893f 588e 823f 5d09 8a3f 3e83 873f
000000e0: f83c 833f aadb 863f acd6 883f 5e3d 7d3f
000000f0: e2c7 8b3f 991f 893f c6d1 7b3f d36d 893f

bn2.bias f4 [64]
-0.012825928 0.048520684 0.024309285 -0.022168873 0.023552591 0.0118784215 -0.0059831687 -0.056584943
0.0122641325 0.066204496 -0.007981068 -0.03470264 0.02864954 -0.078824945 0.038480747 -0.02464257
0.023983281 -0.057276186 -0.013542595 0.015808584 0.11432141 0.021888692 0.035779953 -0.05258096
-0.12677048 0.009489658 0.019717522 -0.08616571 0.03650367 0.00044952382 0.036330834 0.07889704
-0.040677235 -0.008521026 -0.020192252 0.021148602 -0.05554608 0.036993753 0.00559395 0.018136455
0.00062296714 -0.01635186 0.005495973 0.0062294155 -0.07235272 0.017574426 -0.01005435 -0.0786296
-0.019396905 0.03192794 0.022745296 -0.033269163 0.008497109 -0.040394157 0.017605642 -0.0424923
-0.0630661 -0.046164043 -0.0016442846 -0.036289927 0.068488814 -0.052495483 -0.08907168 0.061644815
00000000: d723 52bc a0bd 463d 4424 c73c 7f9b b5bc
00000010: 5df1 c03c b69d 423c 750e c4bb 9dc5 67bd
00000020: 80ef 483c 3996 873d 07c3 02bc 5b24 0ebd
00000030: 71b2 ea3c f96e a1bd fd9d 1d3d 37df c9bc
00000040: 9678 c43c 6f9a 6abd c3e1 5dbc 0181 813c
00000050: 5821 ea3d ea4f b33c 008e 123d 225f 57bd
00000060: 1fd0 01be 837a 1b3c a486 a13c a677 b0bd
00000070: df84 153d 11ae eb39 a4cf 143d c594 a13d
00000080: 2c9d 26bd c69b 0bbc 396a a5bc d53f ad3c
00000090: 4984 63bd c386 173d 744d b73b e792 943c
000000a0: 9e4e 233a 56f4 85bc 9017 b43b 2020 cc3b
000000b0: aa2d 94bd 3ef8 8f3c 00bb 24bc 8e08 a1bd
000000c0: 42e6 9ebc dfc6 023d 5854 ba3c 3f45 08bd
000000d0: 7537 0b3c 5874 25bd b539 903c 680c 2ebd
000000e0: cd28 81bd 8216 3dbd 0985 d7ba bfa4 14bd
000000f0: dd43 8c3d 8105 57bd 376b b6bd 467f 7c3d

bn2.running_mean f4 [64]
0.042075954 -0.9370331 -0.67458856 0.44563222 -0.11694769 0.9801718 -0.7569552 -0.6940776
-0.39276028 -1.5711851 -0.139166 -0.40605727 -0.4230654 -0.25991613 -0.32100597 -0.42476428
-0.31457177 0.21268614 0.18809964 -0.21907853 -0.3814922 -0.018164607 -0.715813 0.09724688
-0.0977405 -0.7753797 -0.2673651 0.8322155 -0.07332682 0.2986481 -0.49103844 -0.26033458
-0.52320266 0.21561192 -0.36647794 -0.108083874 0.010825386 -1.0151141 -0.07700223 0.23422366
0.22481702 0.111536585 -0.50852597 0.1077089 0.2698135 -0.6108639 0.07341473 -0.08858039
-0.11760196 -0.8077222 -0.30108565 -0.3671128 -0.8725157 0.14996718 0.05373595 -0.1511409
0.12037616 -0.66640824 0.16613998 -1.1777167 -0.23725747 0.7811565 -0.2378416 -0.42823723
00000000: d657 2c3d 67e1 6fbf d6b1 2cbf e829 e43e
00000010: 4582 efbd 8aec 7a3f d1c7 41bf 12af 31bf
00000020: e017 c9be 981c c9bf 8881 0ebe bde6 cfbe
00000030: 079c d8be ba13 85be e55a a4be b47a d9be
00000040: 8d0f a1be 65ca 593e 319d 403e 1f56 60be
00000050: f252 c3be f1cd 94bc 853f 37bf 5f29 c73d
00000060: 2c2c c8bd 497f 46bf 14e4 88be 130c 553f
00000070: 5f2c 96bd 67e8 983e 6469 fbbe 934a 85be
00000080: 9cf0 05bf 5fc9 5c3e ffa2 bbbe 145b ddbd
00000090: f65c 313c 42ef 81bf 58b3 9dbd 54d8 6f3e
000000a0: 6f36 663e 4b6d e43d c22e 02bf 7c96 dc3d
000000b0: ff24 8a3e 9461 1cbf 765a 963d a369 b5bd
000000c0: 4cd9 f0bd e2c6 4ebf e627 9abe 35f6 bbbe
000000d0: 305d 5fbf ff90 193e 3a1a 5c3d aec4 1abe
000000e0: c787 f63d bb99 2abf 9920 2a3e 6cbf 96bf
000000f0: 9ff3 72be dff9 473f c08c 73be e941 dbbe

bn2.running_var f4 [64]
0.7182797 1.1932653 0.6018545 0.6959278 1.0725551 0.63519716 0.7645434 1.2576027
1.4084249 0.570687 0.9055095 0.43637866 0.8102563 0.56088835 1.0662106 0.44357306
0.53568876 0.7355706 0.7182382 1.0211375 0.7977157 1.0838732 0.95100015 0.5322007
0.47668985 1.3126982 0.724278 0.85006905 1.2203733 0.7478195 0.87279516 1.0144932
1.0757316 0.57692146 0.50731325 0.637023 0.3813172 0.71106356 0.51689416 0.9429188
0.6967215 0.6346809 0.715587 0.9031071 0.3348312 1.1399419 0.7517302 0.47458345
0.56549346 0.84318334 0.73940384 0.8488007 1.3441454 0.56674916 1.2697666 0.9431826
0.6213296 0.74435383 0.5639985 0.50215065 0.88166004 0.653485 1.1474367 0.8824776
00000000: 2ee1 373f ebbc 983f 2313 1a3f 5328 323f
00000010: 7c49 893f 489c 223f 1eb9 433f 20f9 a03f
00000020: 4447 b43f 8b18 123f 78cf 673f 066d df3e
00000030: f56c 4f3f 6196 0f3f 9779 883f 021c e33e
00000040: e622 093f 5b4e 3c3f 75de 373f a2b4 823f
00000050: 1937 4c3f 5bbc 8a3f bf74 733f 4e3e 083f
00000060: b110 f43e 7f06 a83f 486a 393f 209e 593f
00000070: 3135 9c3f 1971 3f3f 816f 5f3f eada 813f
00000080: 93b1 893f 20b1 133f 48df 013f f013 233f
00000090: 023c c33e 4308 363f 2d53 043f 2063 713f
000000a0: 575c 323f 737a 223f b630 373f 0732 673f
000000b0: ff6e ab3e 9ee9 913f 6471 403f 9afc f23e
000000c0: 2ec4 103f ddda 573f 9249 3d3f 014b 593f
000000d0: f50c ac3f 7916 113f b687 a23f 6a74 713f
000000e0: 750f 1f3f f98d 3e3f 3562 103f f28c 003f
000000f0: 79b4 613f cb4a 273f 35df 923f 0dea 613f

fc3.weight f4 [32, 64]
0.16051084 0.062510036 0.034466848 0.03672454 0.013186731 -0.07245481 -0.13440675 -0.09041234
-0.10707332 0.12736063 0.1762458 0.082458295 -0.051746156 -0.012664137 0.18099593 0.1437467
0.010525422 -0.040491417 -0.13824265 -0.047062702 0.122194394 -0.15492572 -0.07684508 0.06722361
-0.07512363 0.13983381 -0.16200362 -0.13305137 -0.17417142 -0.044445734 -0.010364572 -0.08653809
-0.071442015 0.12888794 0.15256481 -0.05388468 -0.00067441736 0.094469704 0.08369113 -0.1632879
-0.06276248 -0.024264293 0.03241053 -0.016517108 0.1224081 0.06539763 -0.07017287 -0.038943063
0.04172662 0.10475524 -0.080910966 -0.031991523 -0.064873196 0.02496354 -0.13860223 -0.17512555
-0.12868635 -0.027300889 -0.10243021 0.116943255 -0.012832157 -0.036490228 -0.020645091 -0.028248867
-0.0002558126 0.11740612 0.15313144 0.05650038 0.1046594 -0.02148407 -0.010261329 -0.017661715
0.015507146 0.14853825 0.03480891 -0.025312264 0.15633771 0.095887944 0.028287591 -0.031505868
0.07036255 -0.033820517 -0.055480704 0.03141322 0.15391585 0.11086972 0.037498273 -0.07465968
-0.004817216 -0.1456467 0.16606241 -0.039430913 0.110057145 0.044805378 0.058616057 0.025158014
-0.08080063 -0.0018260274 -0.07454832 0.1034728 0.079804964 -0.08852952 -0.018678727 -0.05402116
0.021503484 -0.03284692 0.1622565 -0.16833572 -0.097954355 0.045923945 0.032632086 0.09076349
-0.02460364 0.15903316 -0.0077206222 0.0075244647 -0.1983693 0.1538538 -0.013858922 -0.039460953
0.027288437 0.011049197 -0.12108408 -0.02795859 -0.03774551 0.070449114 -0.03210681 0.20601268
0.05235468 0.14098588 0.10381403 0.13893183 0.09982984 -0.08340302 0.16951762 -0.10783899
-0.15629418 0.023196602 0.08326621 0.07888799 0.11954774 -0.04102855 -0.12932347 0.06766931
-0.0795044 0.07362099 0.027359324 -0.028746352 0.12214885 -0.095875844 0.12798554 -0.07101901
-0.032626238 -0.15443031 0.011676377 0.030551914 0.09869078 -0.07323474 0.052592464 0.026962386
0.07817631 0.035433095 0.09403757 0.14826588 -0.050104026 0.117385365 0.05074819 -0.025899883
-0.059008725 -0.059654783 0.07806943 -0.09427658 0.06212262 -0.06516197 0.010237389 0.06755767
-0.06298815 0.008569762 0.15784404 0.12931989 0.009164309 0.1309125 -0.15518664 0.114377506
0.048361957 0.08729226 -0.062291168 0.10964243 -0.1002863 0.11045773 -0.05052728 0.1327823
0.08929017 0.120494016 -0.076761656 -0.008269121 0.08368198 0.026523458 0.015317955 0.052089408
0.0894506 -0.023873013 -0.07215204 -0.0377715 0.06277093 0.03801547 -0.13805264 0.122945346
0.14727172 0.115598634 0.22006084 0.11341741 0.096757084 0.09549728 -0.028202148 -0.15570605
0.10614222 -0.07397235 -0.045322966 0.14573447 0.027780823 0.24702184 0.1368937 -0.04617958
0.10268131 -0.0149520505 0.029339485 0.041734293 0.035917226 0.039204303 -0.059519637 0.0104070185
0.16371877 0.1449103 -0.02509166 0.07286005 -0.044416234 -0.11807469 0.0379775 0.009747852
0.1870528 0.03335723 -0.0033203019 0.03981087 -0.05014287 0.08504024 0.09823315 -0.047699824
0.15809086 -0.06411581 0.11663971 -0.1698659 -0.13755794 0.15962508 -0.031639587 0.0802674
00000000: f45c 243e 4305 803d 1c2d 0d3d 796c 163d
00000010: 290d 583c 3063 94bd eca1 09be 1b2a b9bd
00000020: 4249 dbbd d36a 023e c779 343e e5df a83d
00000030: c7f3 53bd 3e7d 4fbc ff56 393e 5632 133e
00000040: d272 2c3c 54da 25bd 7b8f 0dbe d2c4 40bd
00000050: 0e41 fa3d d9a4 1ebe f460 9dbd 88ac 893d
00000060: 6bda 99bd 9830 0f3e 47e4 25be 9e3e 08be
00000070: fe59 32be bb0c 36bd 2ad0 29bc e23a b1bd
00000080: 3150 92bd 33fb 033e f339 1c3e 2fb6 5cbd
00000090: 62cb 30ba 5579 c13d 4166 ab3d f134 27be
000000a0: 9d89 80bd e9c5 c6bc e7c0 043d e34e 87bc
000000b0: 19b1 fa3d 31ef 853d cbb6 8fbd c382 1fbd
000000c0: 88e9 2a3d ea89 d63d a6b4 a5bd 8b09 03bd
000000d0: 3ddc 84bd 5680 cc3c beed 0dbe 1d54 33be
000000e0: 5bc6 03be 1da6 dfbc eec6 d1bd f27f ef3d
000000f0: f83d 52bc c776 15bd e51f a9bc 2b6a e7bc
00000100: 961e 86b9 9f72 f03d 7dce 1c3e f16c 673d
00000110: ab57 d63d 5cff afbc 221f 28bc 4daf 90bc
00000120: af11 7e3c 691a 183e ca93 0e3d aa5b cfbc
00000130: fe16 203e e660 c43d 61bb e73c 4c0c 01bd
00000140: 3e1a 903d 6287 0abd bc3f 63bd 26ab 003d
00000150: 1e9c 1d3e aa0f e33d ca97 193d 2de7 98bd
00000160: bdd9 9dbb 6924 15be 440c 2a3e 4f82 21bd
00000170: a465 e13d d885 373d 6417 703d 2e18 ce3c
00000180: cd7a a5bd 5057 efba caac 98bd 8ce9 d33d
00000190: c970 a33d f74e b5bd 2104 99bc 4b45 5dbd
000001a0: 1328 b03c 7e8a 06bd 9126 263e 3360 2cbe
000001b0: 4b9c c8bd bf1a 3c3d 39a9 053d 35e2 b93d
000001c0: 938d c9bc 97d9 223e 46fd fcbb c98f f63b
000001d0: 5221 4bbe da8b 1d3e 8810 63bc cfa1 21bd
000001e0: 008c df3c b107 353c eefa f7bd 6a09 e5bc
000001f0: 099b 1abd a047 903d 6e82 03bd fdf4 523e
00000200: dc71 563d 9a5e 103e 739c d43d 2544 0e3e
00000210: 9673 cc3d 34cf aabd 0796 2d3e b0da dcbd
00000220: 950b 20be cd06 be3c 7a87 aa3d 0790 a13d
00000230: 72d5 f43d 8e0d 28bd 5f6d 04be 3596 8a3d
00000240: 34d3 a2bd 9ac6 963d a920 e03c 787d ebbc
00000250: 2d29 fa3d 8e5a c4bd a40e 033e 6a72 91bd
00000260: 17a3 05bd fb22 1ebe 464e 3f3c 0248 fa3c
00000270: 641e ca3d 18fc 95bd 326b 573d 39e0 dc3c
00000280: e71a a03d 4b22 113d c596 c03d 03d3 173e
00000290: e139 4dbd bd67 f03d 56dd 4f3d fe2b d4bc
000002a0: 22b3 71bd 9358 74bd dee2 9f3d 1414 c1bd
000002b0: 4a74 7e3d a473 85bd b9ba 273c ad5b 8a3d
000002c0: eeff 80bd 3068 0c3c dea1 213e 6f6c 043e
000002d0: e625 163c ed0d 063e 3fe9 1ebe c13e ea3d
000002e0: 3017 463d 49c6 b23d 0625 7fbd 368c e03d
000002f0: e762 cdbd aa37 e23d b1f5 4ebd 15f8 073e
00000300: c4dd b63d 91c5 f63d 3735 9dbd 357b 07bc
00000310: 7561 ab3d b947 d93c 29f8 7a3c b45b 553d
00000320: e031 b73d 5691 c3bc 73c4 93bd 4ab6 1abd
00000330: 0c8e 803d 1cb6 1b3d ac5d 0dbe c5ca fb3d
00000340: 66ce 163e fabe ec3d a157 613e 6347 e83d
00000350: 9428 c63d 1494 c33d 3108 e7bc 6871 1fbe
00000360: 1861 d93d d17e 97bd 93a4 39bd 6b3b 153e
00000370: 9c94 e33c 4bf3 7c3e dd2d 0c3e cd26 3dbd
00000380: 944a d23d 72f9 74bc 5c59 f03c 94f1 2a3d
00000390: f11d 133d b194 203d ddca 73bd 3382 2a3c
000003a0: e5a5 273e 5e63 143e 068d cdbc a637 953d
000003b0: cced 35bd 25d1 f1bd 4c8e 1b3d 74b5 1f3c
000003c0: c58a 3f3e 97a1 083d 6c99 59bb b910 233d
000003d0: 9c62 4dbd 9429 ae3d 762e c93d e460 43bd
000003e0: 92e2 213e 264f 83bd cde0 ee3d 54f1 2dbe
000003f0: fddb 0cbe c274 233e 8398 01bd 3c63 a43d

fc3.bias f4 [32]
0.07164769 0.17595586 0.046466015 0.11665765 0.11944405 0.111953855 -0.04889823 -0.10327614
-0.0116841905 -0.0006738988 0.15698689 0.12588347 -0.006884259 -0.02068871 0.039235998 0.07354113
0.046150275 0.06959025 0.21782432 0.1004754 0.1305547 0.06055774 0.05778883 0.19838808
0.021319414 0.032773554 0.00062835764 0.15298516 0.017844988 0.14026402 0.16344142 0.03270384
00000000: 06bc 923d c62d 343e 2653 3e3d 35ea ee3d
00000010: 159f f43d 1048 e53d 8349 48bd 7182 d3bd
00000020: 0c6f 3fbc 95a8 30ba 2cc1 203e 99e7 003e
00000030: 5a95 e1bb 5f7b a9bc edb5 203d bb9c 963d
00000040: 1208 3d3d 5585 8e3d 570d 5f3e 0cc6 cd3d
00000050: 22b0 053e 650b 783d fbb3 6c3d 3f26 4b3e
00000060: 0da6 ae3c 903d 063d 5eb8 243a 24a8 1c3e
00000070: a72f 923c 5fa1 0f3e 305d 273e 76f4 053d

fc_out.weight f4 [3, 32]
-0.13765424 0.013973226 -0.280373 -0.01704995 -0.13863263 -0.088775285 -0.07444901 -0.12521166
0.18485653 0.039689876 -0.16627657 0.072673365 0.13851587 -0.13062291 0.23737383 -0.15231891
0.21671274 0.13572924 -0.2679696 -0.23287365 0.19647516 -0.056649663 -0.0058527393 -0.020128125
-0.03826839 -0.01568223 0.07990583 -0.23124759 -0.009701928 0.13557868 -0.24822353 0.2534293
0.15614519 0.09400256 -0.11023815 -0.22918276 0.15413366 0.15466821 -0.17098564 0.21060896
-0.09209561 -0.17805792 -0.096397296 -0.11605872 0.09476369 -0.081232704 0.13143864 0.23505321
0.15078016 0.097890735 -0.026338411 -0.0537923 0.07938333 0.0057695513 -0.010533953 0.2507149
-0.33398607 -0.030483425 -0.16978854 -0.0008008287 0.01959724 -0.15937993 0.22086546 0.047759727
-0.09717308 0.2102288 -0.016599908 0.04540547 -0.016664725 -0.13417931 0.0951625 -0.12191053
-0.2718428 0.13161363 0.10378686 -0.110665716 -0.29537183 0.16457236 -0.12225899 -0.16246122
-0.25851578 -0.26130256 -0.034407903 0.039261565 -0.16126004 -0.3032318 0.14878969 0.088518664
-0.115442716 0.15374525 -0.12513785 0.10783351 0.19208713 0.105333336 0.14885834 -0.095397614
00000000: 3cf5 0cbe f5ef 643c 0d8d 8fbe 56ac 8bbc
00000010: b6f5 0dbe d1cf b5bd b978 98bd 7c37 00be
00000020: 084b 3d3e da91 223d 6844 2abe c6d5 943d
00000030: 1bd7 0d3e 03c2 05be 2012 733e 7df9 1bbe
00000040: f2e9 5d3e 9bfc 0a3e 5033 89be 6e76 6ebe
00000050: c930 493e 7a09 68bd 56c8 bfbb bde3 a4bc
00000060: 51bf 1cbd 0578 80bc aba5 a33d 2bcc 6cbe
00000070: d6f4 1ebc 23d5 0a3e 4f2e 7ebe 7cc1 813e
00000080: 86e4 1f3e 6a84 c03d 8ac4 e1bd e3ae 6abe
00000090: 37d5 1d3e 5861 1e3e dc16 2fbe e0a9 573e
000000a0: a09c bcbd d154 36be f26b c5bd 32b0 edbd
000000b0: 7713 c23d 555d a6bd da97 063e cab1 703e
000000c0: 1d66 1a3e f07a c83d a7c3 d7bc 5155 5cbd
000000d0: ba93 a23d 810e bd3b 9a96 2cbc b45d 803e
000000e0: 3900 abbe 60b8 f9bc 0cdd 2dbe b4ee 51ba
000000f0: 648a a03c 7e34 23be 8e2a 623e b49f 433d
00000100: ae02 c7bd 3846 573e 88fc 87bc 16fb 393d
00000110: 7684 88bc 4d66 09be 8fe4 c23d 3aac f9bd
00000120: fb2e 8bbe b9c5 063e 358e d43d b5a4 e2bd
00000130: fa3a 97be a885 283e ec62 fabd 3c5c 26be
00000140: 2e5c 84be 73c9 85be 4def 0cbd bcd0 203d
00000150: 5a21 25be 3341 9bbe 535c 183e 4649 b53d
00000160: 3b6d ecbd 656f 1d3e 2324 00be d1d7 dc3d
00000170: 7db2 443e 01b9 d73d 526e 183e d35f c3bd

fc_out.bias f4 [3]
-0.043336812 -0.16078646 -0.061589427
00000000: f181 31bd 35a5 24be 3245 7cbd
